node {
  name: "loader/normalize_element/component_0"
  op: "Const"
  attr {
    key: "_output_shapes"
    value {
      list {
        shape {
          dim {
            size: 1577
          }
        }
      }
    }
  }
  attr {
    key: "dtype"
    value {
      type: DT_STRING
    }
  }
  attr {
    key: "value"
    value {
      tensor {
        dtype: DT_STRING
        tensor_shape {
          dim {
            size: 1577
          }
        }
        string_val: "/content/drive/MyDrive/heartbeat artifact/00126.wav"
        string_val: "/content/drive/MyDrive/heartbeat artifact/00244.wav"
        string_val: "/content/drive/MyDrive/heartbeat artifact/00158.wav"
        string_val: "/content/drive/MyDrive/heartbeat artifact/00167.wav"
        string_val: "/content/drive/MyDrive/heartbeat artifact/00116.wav"
        string_val: "/content/drive/MyDrive/heartbeat artifact/00239.wav"
        string_val: "/content/drive/MyDrive/heartbeat artifact/00141.wav"
        string_val: "/content/drive/MyDrive/heartbeat artifact/00286.wav"
        string_val: "/content/drive/MyDrive/heartbeat artifact/00213.wav"
        string_val: "/content/drive/MyDrive/heartbeat artifact/00131.wav"
        string_val: "/content/drive/MyDrive/heartbeat artifact/00189.wav"
        string_val: "/content/drive/MyDrive/heartbeat artifact/00134.wav"
        string_val: "/content/drive/MyDrive/heartbeat artifact/00151.wav"
        string_val: "/content/drive/MyDrive/heartbeat artifact/00284.wav"
        string_val: "/content/drive/MyDrive/heartbeat artifact/00176.wav"
        string_val: "/content/drive/MyDrive/heartbeat artifact/00291.wav"
        string_val: "/content/drive/MyDrive/heartbeat artifact/00188.wav"
        string_val: "/content/drive/MyDrive/heartbeat artifact/00275.wav"
        string_val: "/content/drive/MyDrive/heartbeat artifact/00153.wav"
        string_val: "/content/drive/MyDrive/heartbeat artifact/00293.wav"
        string_val: "/content/drive/MyDrive/heartbeat artifact/00226.wav"
        string_val: "/content/drive/MyDrive/heartbeat artifact/00273.wav"
        string_val: "/content/drive/MyDrive/heartbeat artifact/00112.wav"
        string_val: "/content/drive/MyDrive/heartbeat artifact/00115.wav"
        string_val: "/content/drive/MyDrive/heartbeat artifact/00173.wav"
        string_val: "/content/drive/MyDrive/heartbeat artifact/00118.wav"
        string_val: "/content/drive/MyDrive/heartbeat artifact/00154.wav"
        string_val: "/content/drive/MyDrive/heartbeat artifact/00108.wav"
        string_val: "/content/drive/MyDrive/heartbeat artifact/00105.wav"
        string_val: "/content/drive/MyDrive/heartbeat artifact/00251.wav"
        string_val: "/content/drive/MyDrive/heartbeat artifact/00281.wav"
        string_val: "/content/drive/MyDrive/heartbeat artifact/00186.wav"
        string_val: "/content/drive/MyDrive/heartbeat artifact/00210.wav"
        string_val: "/content/drive/MyDrive/heartbeat artifact/00296.wav"
        string_val: "/content/drive/MyDrive/heartbeat artifact/00195.wav"
        string_val: "/content/drive/MyDrive/heartbeat artifact/00114.wav"
        string_val: "/content/drive/MyDrive/heartbeat artifact/00132.wav"
        string_val: "/content/drive/MyDrive/heartbeat artifact/00221.wav"
        string_val: "/content/drive/MyDrive/heartbeat artifact/00192.wav"
        string_val: "/content/drive/MyDrive/heartbeat artifact/00163.wav"
        string_val: "/content/drive/MyDrive/heartbeat artifact/00136.wav"
        string_val: "/content/drive/MyDrive/heartbeat artifact/00127.wav"
        string_val: "/content/drive/MyDrive/heartbeat artifact/00262.wav"
        string_val: "/content/drive/MyDrive/heartbeat artifact/00180.wav"
        string_val: "/content/drive/MyDrive/heartbeat artifact/00109.wav"
        string_val: "/content/drive/MyDrive/heartbeat artifact/00214.wav"
        string_val: "/content/drive/MyDrive/heartbeat artifact/00183.wav"
        string_val: "/content/drive/MyDrive/heartbeat artifact/00168.wav"
        string_val: "/content/drive/MyDrive/heartbeat artifact/00269.wav"
        string_val: "/content/drive/MyDrive/heartbeat artifact/00165.wav"
        string_val: "/content/drive/MyDrive/heartbeat artifact/00227.wav"
        string_val: "/content/drive/MyDrive/heartbeat artifact/00245.wav"
        string_val: "/content/drive/MyDrive/heartbeat artifact/00224.wav"
        string_val: "/content/drive/MyDrive/heartbeat artifact/00169.wav"
        string_val: "/content/drive/MyDrive/heartbeat artifact/00121.wav"
        string_val: "/content/drive/MyDrive/heartbeat artifact/00149.wav"
        string_val: "/content/drive/MyDrive/heartbeat artifact/00199.wav"
        string_val: "/content/drive/MyDrive/heartbeat artifact/00230.wav"
        string_val: "/content/drive/MyDrive/heartbeat artifact/00207.wav"
        string_val: "/content/drive/MyDrive/heartbeat artifact/00237.wav"
        string_val: "/content/drive/MyDrive/heartbeat artifact/0098.wav"
        string_val: "/content/drive/MyDrive/heartbeat artifact/00175.wav"
        string_val: "/content/drive/MyDrive/heartbeat artifact/00231.wav"
        string_val: "/content/drive/MyDrive/heartbeat artifact/00211.wav"
        string_val: "/content/drive/MyDrive/heartbeat artifact/00157.wav"
        string_val: "/content/drive/MyDrive/heartbeat artifact/00300.wav"
        string_val: "/content/drive/MyDrive/heartbeat artifact/00255.wav"
        string_val: "/content/drive/MyDrive/heartbeat artifact/00177.wav"
        string_val: "/content/drive/MyDrive/heartbeat artifact/00156.wav"
        string_val: "/content/drive/MyDrive/heartbeat artifact/00128.wav"
        string_val: "/content/drive/MyDrive/heartbeat artifact/00140.wav"
        string_val: "/content/drive/MyDrive/heartbeat artifact/00145.wav"
        string_val: "/content/drive/MyDrive/heartbeat artifact/00298.wav"
        string_val: "/content/drive/MyDrive/heartbeat artifact/00201.wav"
        string_val: "/content/drive/MyDrive/heartbeat artifact/00152.wav"
        string_val: "/content/drive/MyDrive/heartbeat artifact/0097.wav"
        string_val: "/content/drive/MyDrive/heartbeat artifact/00257.wav"
        string_val: "/content/drive/MyDrive/heartbeat artifact/00143.wav"
        string_val: "/content/drive/MyDrive/heartbeat artifact/00196.wav"
        string_val: "/content/drive/MyDrive/heartbeat artifact/00206.wav"
        string_val: "/content/drive/MyDrive/heartbeat artifact/00181.wav"
        string_val: "/content/drive/MyDrive/heartbeat artifact/00138.wav"
        string_val: "/content/drive/MyDrive/heartbeat artifact/00246.wav"
        string_val: "/content/drive/MyDrive/heartbeat artifact/00272.wav"
        string_val: "/content/drive/MyDrive/heartbeat artifact/00182.wav"
        string_val: "/content/drive/MyDrive/heartbeat artifact/00122.wav"
        string_val: "/content/drive/MyDrive/heartbeat artifact/00241.wav"
        string_val: "/content/drive/MyDrive/heartbeat artifact/00187.wav"
        string_val: "/content/drive/MyDrive/heartbeat artifact/00265.wav"
        string_val: "/content/drive/MyDrive/heartbeat artifact/00301.wav"
        string_val: "/content/drive/MyDrive/heartbeat artifact/00110.wav"
        string_val: "/content/drive/MyDrive/heartbeat artifact/00203.wav"
        string_val: "/content/drive/MyDrive/heartbeat artifact/00100.wav"
        string_val: "/content/drive/MyDrive/heartbeat artifact/00166.wav"
        string_val: "/content/drive/MyDrive/heartbeat artifact/00135.wav"
        string_val: "/content/drive/MyDrive/heartbeat artifact/00172.wav"
        string_val: "/content/drive/MyDrive/heartbeat artifact/00260.wav"
        string_val: "/content/drive/MyDrive/heartbeat artifact/00280.wav"
        string_val: "/content/drive/MyDrive/heartbeat artifact/00243.wav"
        string_val: "/content/drive/MyDrive/heartbeat artifact/00270.wav"
        string_val: "/content/drive/MyDrive/heartbeat artifact/00162.wav"
        string_val: "/content/drive/MyDrive/heartbeat artifact/00236.wav"
        string_val: "/content/drive/MyDrive/heartbeat artifact/00229.wav"
        string_val: "/content/drive/MyDrive/heartbeat artifact/00160.wav"
        string_val: "/content/drive/MyDrive/heartbeat artifact/00178.wav"
        string_val: "/content/drive/MyDrive/heartbeat artifact/00266.wav"
        string_val: "/content/drive/MyDrive/heartbeat artifact/00220.wav"
        string_val: "/content/drive/MyDrive/heartbeat artifact/00217.wav"
        string_val: "/content/drive/MyDrive/heartbeat artifact/00119.wav"
        string_val: "/content/drive/MyDrive/heartbeat artifact/00256.wav"
        string_val: "/content/drive/MyDrive/heartbeat artifact/00198.wav"
        string_val: "/content/drive/MyDrive/heartbeat artifact/00278.wav"
        string_val: "/content/drive/MyDrive/heartbeat artifact/00113.wav"
        string_val: "/content/drive/MyDrive/heartbeat artifact/00155.wav"
        string_val: "/content/drive/MyDrive/heartbeat artifact/00299.wav"
        string_val: "/content/drive/MyDrive/heartbeat artifact/00174.wav"
        string_val: "/content/drive/MyDrive/heartbeat artifact/00179.wav"
        string_val: "/content/drive/MyDrive/heartbeat artifact/00124.wav"
        string_val: "/content/drive/MyDrive/heartbeat artifact/00212.wav"
        string_val: "/content/drive/MyDrive/heartbeat artifact/00287.wav"
        string_val: "/content/drive/MyDrive/heartbeat artifact/00261.wav"
        string_val: "/content/drive/MyDrive/heartbeat artifact/00282.wav"
        string_val: "/content/drive/MyDrive/heartbeat artifact/00164.wav"
        string_val: "/content/drive/MyDrive/heartbeat artifact/00148.wav"
        string_val: "/content/drive/MyDrive/heartbeat artifact/00142.wav"
        string_val: "/content/drive/MyDrive/heartbeat artifact/00161.wav"
        string_val: "/content/drive/MyDrive/heartbeat artifact/0099.wav"
        string_val: "/content/drive/MyDrive/heartbeat artifact/00144.wav"
        string_val: "/content/drive/MyDrive/heartbeat artifact/00101.wav"
        string_val: "/content/drive/MyDrive/heartbeat artifact/00279.wav"
        string_val: "/content/drive/MyDrive/heartbeat artifact/00218.wav"
        string_val: "/content/drive/MyDrive/heartbeat artifact/00268.wav"
        string_val: "/content/drive/MyDrive/heartbeat artifact/00219.wav"
        string_val: "/content/drive/MyDrive/heartbeat artifact/00191.wav"
        string_val: "/content/drive/MyDrive/heartbeat artifact/00202.wav"
        string_val: "/content/drive/MyDrive/heartbeat artifact/00139.wav"
        string_val: "/content/drive/MyDrive/heartbeat artifact/00223.wav"
        string_val: "/content/drive/MyDrive/heartbeat artifact/00240.wav"
        string_val: "/content/drive/MyDrive/heartbeat artifact/00235.wav"
        string_val: "/content/drive/MyDrive/heartbeat artifact/00247.wav"
        string_val: "/content/drive/MyDrive/heartbeat artifact/00470.wav"
        string_val: "/content/drive/MyDrive/heartbeat artifact/00468.wav"
        string_val: "/content/drive/MyDrive/heartbeat artifact/00368.wav"
        string_val: "/content/drive/MyDrive/heartbeat artifact/00475.wav"
        string_val: "/content/drive/MyDrive/heartbeat artifact/00473.wav"
        string_val: "/content/drive/MyDrive/heartbeat artifact/00471.wav"
        string_val: "/content/drive/MyDrive/heartbeat artifact/00472.wav"
        string_val: "/content/drive/MyDrive/heartbeat artifact/00378.wav"
        string_val: "/content/drive/MyDrive/heartbeat artifact/00474.wav"
        string_val: "/content/drive/MyDrive/heartbeat artifact/00369.wav"
        string_val: "/content/drive/MyDrive/heartbeat artifact/00469.wav"
        string_val: "/content/drive/MyDrive/heartbeat artifact/00536.wav"
        string_val: "/content/drive/MyDrive/heartbeat artifact/00491.wav"
        string_val: "/content/drive/MyDrive/heartbeat artifact/00482.wav"
        string_val: "/content/drive/MyDrive/heartbeat artifact/00512.wav"
        string_val: "/content/drive/MyDrive/heartbeat artifact/00481.wav"
        string_val: "/content/drive/MyDrive/heartbeat artifact/00515.wav"
        string_val: "/content/drive/MyDrive/heartbeat artifact/00520.wav"
        string_val: "/content/drive/MyDrive/heartbeat artifact/00516.wav"
        string_val: "/content/drive/MyDrive/heartbeat artifact/00532.wav"
        string_val: "/content/drive/MyDrive/heartbeat artifact/00524.wav"
        string_val: "/content/drive/MyDrive/heartbeat artifact/00502.wav"
        string_val: "/content/drive/MyDrive/heartbeat artifact/00533.wav"
        string_val: "/content/drive/MyDrive/heartbeat artifact/00539.wav"
        string_val: "/content/drive/MyDrive/heartbeat artifact/00484.wav"
        string_val: "/content/drive/MyDrive/heartbeat artifact/00487.wav"
        string_val: "/content/drive/MyDrive/heartbeat artifact/00528.wav"
        string_val: "/content/drive/MyDrive/heartbeat artifact/00494.wav"
        string_val: "/content/drive/MyDrive/heartbeat artifact/00486.wav"
        string_val: "/content/drive/MyDrive/heartbeat artifact/00490.wav"
        string_val: "/content/drive/MyDrive/heartbeat artifact/00379.wav"
        string_val: "/content/drive/MyDrive/heartbeat artifact/00541.wav"
        string_val: "/content/drive/MyDrive/heartbeat artifact/00476.wav"
        string_val: "/content/drive/MyDrive/heartbeat artifact/00477.wav"
        string_val: "/content/drive/MyDrive/heartbeat artifact/00522.wav"
        string_val: "/content/drive/MyDrive/heartbeat artifact/00493.wav"
        string_val: "/content/drive/MyDrive/heartbeat artifact/00525.wav"
        string_val: "/content/drive/MyDrive/heartbeat artifact/00507.wav"
        string_val: "/content/drive/MyDrive/heartbeat artifact/00489.wav"
        string_val: "/content/drive/MyDrive/heartbeat artifact/00383.wav"
        string_val: "/content/drive/MyDrive/heartbeat artifact/00529.wav"
        string_val: "/content/drive/MyDrive/heartbeat artifact/00534.wav"
        string_val: "/content/drive/MyDrive/heartbeat artifact/00483.wav"
        string_val: "/content/drive/MyDrive/heartbeat artifact/00544.wav"
        string_val: "/content/drive/MyDrive/heartbeat artifact/00518.wav"
        string_val: "/content/drive/MyDrive/heartbeat artifact/00478.wav"
        string_val: "/content/drive/MyDrive/heartbeat artifact/00527.wav"
        string_val: "/content/drive/MyDrive/heartbeat artifact/00530.wav"
        string_val: "/content/drive/MyDrive/heartbeat artifact/00496.wav"
        string_val: "/content/drive/MyDrive/heartbeat artifact/00384.wav"
        string_val: "/content/drive/MyDrive/heartbeat artifact/00380.wav"
        string_val: "/content/drive/MyDrive/heartbeat artifact/00479.wav"
        string_val: "/content/drive/MyDrive/heartbeat artifact/00519.wav"
        string_val: "/content/drive/MyDrive/heartbeat artifact/00499.wav"
        string_val: "/content/drive/MyDrive/heartbeat artifact/00514.wav"
        string_val: "/content/drive/MyDrive/heartbeat artifact/00480.wav"
        string_val: "/content/drive/MyDrive/heartbeat artifact/00500.wav"
        string_val: "/content/drive/MyDrive/heartbeat artifact/00543.wav"
        string_val: "/content/drive/MyDrive/heartbeat artifact/00535.wav"
        string_val: "/content/drive/MyDrive/heartbeat artifact/00526.wav"
        string_val: "/content/drive/MyDrive/heartbeat artifact/00513.wav"
        string_val: "/content/drive/MyDrive/heartbeat artifact/00505.wav"
        string_val: "/content/drive/MyDrive/heartbeat artifact/00538.wav"
        string_val: "/content/drive/MyDrive/heartbeat artifact/00545.wav"
        string_val: "/content/drive/MyDrive/heartbeat artifact/00509.wav"
        string_val: "/content/drive/MyDrive/heartbeat artifact/00511.wav"
        string_val: "/content/drive/MyDrive/heartbeat artifact/00385.wav"
        string_val: "/content/drive/MyDrive/heartbeat artifact/00506.wav"
        string_val: "/content/drive/MyDrive/heartbeat artifact/00531.wav"
        string_val: "/content/drive/MyDrive/heartbeat artifact/00495.wav"
        string_val: "/content/drive/MyDrive/heartbeat artifact/00485.wav"
        string_val: "/content/drive/MyDrive/heartbeat artifact/00510.wav"
        string_val: "/content/drive/MyDrive/heartbeat artifact/00542.wav"
        string_val: "/content/drive/MyDrive/heartbeat artifact/00488.wav"
        string_val: "/content/drive/MyDrive/heartbeat artifact/00517.wav"
        string_val: "/content/drive/MyDrive/heartbeat artifact/00503.wav"
        string_val: "/content/drive/MyDrive/heartbeat artifact/00504.wav"
        string_val: "/content/drive/MyDrive/heartbeat artifact/00508.wav"
        string_val: "/content/drive/MyDrive/heartbeat artifact/00382.wav"
        string_val: "/content/drive/MyDrive/heartbeat artifact/00492.wav"
        string_val: "/content/drive/MyDrive/heartbeat artifact/00381.wav"
        string_val: "/content/drive/MyDrive/heartbeat artifact/00540.wav"
        string_val: "/content/drive/MyDrive/heartbeat artifact/00537.wav"
        string_val: "/content/drive/MyDrive/heartbeat artifact/00523.wav"
        string_val: "/content/drive/MyDrive/heartbeat artifact/00521.wav"
        string_val: "/content/drive/MyDrive/heartbeat artifact/00497.wav"
        string_val: "/content/drive/MyDrive/heartbeat artifact/00498.wav"
        string_val: "/content/drive/MyDrive/heartbeat artifact/00501.wav"
        string_val: "/content/drive/MyDrive/heartbeat artifact/00370.wav"
        string_val: "/content/drive/MyDrive/heartbeat artifact/00636.wav"
        string_val: "/content/drive/MyDrive/heartbeat artifact/00621.wav"
        string_val: "/content/drive/MyDrive/heartbeat artifact/00598.wav"
        string_val: "/content/drive/MyDrive/heartbeat artifact/00577.wav"
        string_val: "/content/drive/MyDrive/heartbeat artifact/00586.wav"
        string_val: "/content/drive/MyDrive/heartbeat artifact/00555.wav"
        string_val: "/content/drive/MyDrive/heartbeat artifact/00606.wav"
        string_val: "/content/drive/MyDrive/heartbeat artifact/00395.wav"
        string_val: "/content/drive/MyDrive/heartbeat artifact/00590.wav"
        string_val: "/content/drive/MyDrive/heartbeat artifact/00554.wav"
        string_val: "/content/drive/MyDrive/heartbeat artifact/00637.wav"
        string_val: "/content/drive/MyDrive/heartbeat artifact/00575.wav"
        string_val: "/content/drive/MyDrive/heartbeat artifact/00608.wav"
        string_val: "/content/drive/MyDrive/heartbeat artifact/00389.wav"
        string_val: "/content/drive/MyDrive/heartbeat artifact/00550.wav"
        string_val: "/content/drive/MyDrive/heartbeat artifact/00634.wav"
        string_val: "/content/drive/MyDrive/heartbeat artifact/00547.wav"
        string_val: "/content/drive/MyDrive/heartbeat artifact/00394.wav"
        string_val: "/content/drive/MyDrive/heartbeat artifact/00580.wav"
        string_val: "/content/drive/MyDrive/heartbeat artifact/00631.wav"
        string_val: "/content/drive/MyDrive/heartbeat artifact/00558.wav"
        string_val: "/content/drive/MyDrive/heartbeat artifact/00582.wav"
        string_val: "/content/drive/MyDrive/heartbeat artifact/00570.wav"
        string_val: "/content/drive/MyDrive/heartbeat artifact/00583.wav"
        string_val: "/content/drive/MyDrive/heartbeat artifact/00603.wav"
        string_val: "/content/drive/MyDrive/heartbeat artifact/00581.wav"
        string_val: "/content/drive/MyDrive/heartbeat artifact/00559.wav"
        string_val: "/content/drive/MyDrive/heartbeat artifact/00623.wav"
        string_val: "/content/drive/MyDrive/heartbeat artifact/00390.wav"
        string_val: "/content/drive/MyDrive/heartbeat artifact/00615.wav"
        string_val: "/content/drive/MyDrive/heartbeat artifact/00392.wav"
        string_val: "/content/drive/MyDrive/heartbeat artifact/00551.wav"
        string_val: "/content/drive/MyDrive/heartbeat artifact/00605.wav"
        string_val: "/content/drive/MyDrive/heartbeat artifact/00610.wav"
        string_val: "/content/drive/MyDrive/heartbeat artifact/00387.wav"
        string_val: "/content/drive/MyDrive/heartbeat artifact/00549.wav"
        string_val: "/content/drive/MyDrive/heartbeat artifact/00391.wav"
        string_val: "/content/drive/MyDrive/heartbeat artifact/00633.wav"
        string_val: "/content/drive/MyDrive/heartbeat artifact/00572.wav"
        string_val: "/content/drive/MyDrive/heartbeat artifact/00620.wav"
        string_val: "/content/drive/MyDrive/heartbeat artifact/00560.wav"
        string_val: "/content/drive/MyDrive/heartbeat artifact/00564.wav"
        string_val: "/content/drive/MyDrive/heartbeat artifact/00388.wav"
        string_val: "/content/drive/MyDrive/heartbeat artifact/00632.wav"
        string_val: "/content/drive/MyDrive/heartbeat artifact/00594.wav"
        string_val: "/content/drive/MyDrive/heartbeat artifact/00576.wav"
        string_val: "/content/drive/MyDrive/heartbeat artifact/00561.wav"
        string_val: "/content/drive/MyDrive/heartbeat artifact/00614.wav"
        string_val: "/content/drive/MyDrive/heartbeat artifact/00588.wav"
        string_val: "/content/drive/MyDrive/heartbeat artifact/00596.wav"
        string_val: "/content/drive/MyDrive/heartbeat artifact/00568.wav"
        string_val: "/content/drive/MyDrive/heartbeat artifact/00591.wav"
        string_val: "/content/drive/MyDrive/heartbeat artifact/00629.wav"
        string_val: "/content/drive/MyDrive/heartbeat artifact/00630.wav"
        string_val: "/content/drive/MyDrive/heartbeat artifact/00573.wav"
        string_val: "/content/drive/MyDrive/heartbeat artifact/00624.wav"
        string_val: "/content/drive/MyDrive/heartbeat artifact/00584.wav"
        string_val: "/content/drive/MyDrive/heartbeat artifact/00571.wav"
        string_val: "/content/drive/MyDrive/heartbeat artifact/00628.wav"
        string_val: "/content/drive/MyDrive/heartbeat artifact/00565.wav"
        string_val: "/content/drive/MyDrive/heartbeat artifact/00552.wav"
        string_val: "/content/drive/MyDrive/heartbeat artifact/00627.wav"
        string_val: "/content/drive/MyDrive/heartbeat artifact/00574.wav"
        string_val: "/content/drive/MyDrive/heartbeat artifact/00626.wav"
        string_val: "/content/drive/MyDrive/heartbeat artifact/00595.wav"
        string_val: "/content/drive/MyDrive/heartbeat artifact/00592.wav"
        string_val: "/content/drive/MyDrive/heartbeat artifact/00601.wav"
        string_val: "/content/drive/MyDrive/heartbeat artifact/00556.wav"
        string_val: "/content/drive/MyDrive/heartbeat artifact/00393.wav"
        string_val: "/content/drive/MyDrive/heartbeat artifact/00600.wav"
        string_val: "/content/drive/MyDrive/heartbeat artifact/00617.wav"
        string_val: "/content/drive/MyDrive/heartbeat artifact/00546.wav"
        string_val: "/content/drive/MyDrive/heartbeat artifact/00548.wav"
        string_val: "/content/drive/MyDrive/heartbeat artifact/00609.wav"
        string_val: "/content/drive/MyDrive/heartbeat artifact/00589.wav"
        string_val: "/content/drive/MyDrive/heartbeat artifact/00566.wav"
        string_val: "/content/drive/MyDrive/heartbeat artifact/00602.wav"
        string_val: "/content/drive/MyDrive/heartbeat artifact/00579.wav"
        string_val: "/content/drive/MyDrive/heartbeat artifact/00613.wav"
        string_val: "/content/drive/MyDrive/heartbeat artifact/00618.wav"
        string_val: "/content/drive/MyDrive/heartbeat artifact/00585.wav"
        string_val: "/content/drive/MyDrive/heartbeat artifact/00599.wav"
        string_val: "/content/drive/MyDrive/heartbeat artifact/00616.wav"
        string_val: "/content/drive/MyDrive/heartbeat artifact/00593.wav"
        string_val: "/content/drive/MyDrive/heartbeat artifact/00604.wav"
        string_val: "/content/drive/MyDrive/heartbeat artifact/00612.wav"
        string_val: "/content/drive/MyDrive/heartbeat artifact/00619.wav"
        string_val: "/content/drive/MyDrive/heartbeat artifact/00553.wav"
        string_val: "/content/drive/MyDrive/heartbeat artifact/00569.wav"
        string_val: "/content/drive/MyDrive/heartbeat artifact/00567.wav"
        string_val: "/content/drive/MyDrive/heartbeat artifact/00587.wav"
        string_val: "/content/drive/MyDrive/heartbeat artifact/00597.wav"
        string_val: "/content/drive/MyDrive/heartbeat artifact/00622.wav"
        string_val: "/content/drive/MyDrive/heartbeat artifact/00562.wav"
        string_val: "/content/drive/MyDrive/heartbeat artifact/00557.wav"
        string_val: "/content/drive/MyDrive/heartbeat artifact/00607.wav"
        string_val: "/content/drive/MyDrive/heartbeat artifact/00563.wav"
        string_val: "/content/drive/MyDrive/heartbeat artifact/00386.wav"
        string_val: "/content/drive/MyDrive/heartbeat artifact/00578.wav"
        string_val: "/content/drive/MyDrive/heartbeat artifact/00625.wav"
        string_val: "/content/drive/MyDrive/heartbeat artifact/00635.wav"
        string_val: "/content/drive/MyDrive/heartbeat artifact/00611.wav"
        string_val: "/content/drive/MyDrive/heartbeat artifact/00668.wav"
        string_val: "/content/drive/MyDrive/heartbeat artifact/00728.wav"
        string_val: "/content/drive/MyDrive/heartbeat artifact/00640.wav"
        string_val: "/content/drive/MyDrive/heartbeat artifact/00726.wav"
        string_val: "/content/drive/MyDrive/heartbeat artifact/00677.wav"
        string_val: "/content/drive/MyDrive/heartbeat artifact/00647.wav"
        string_val: "/content/drive/MyDrive/heartbeat artifact/00658.wav"
        string_val: "/content/drive/MyDrive/heartbeat artifact/00403.wav"
        string_val: "/content/drive/MyDrive/heartbeat artifact/00708.wav"
        string_val: "/content/drive/MyDrive/heartbeat artifact/00664.wav"
        string_val: "/content/drive/MyDrive/heartbeat artifact/00642.wav"
        string_val: "/content/drive/MyDrive/heartbeat artifact/00690.wav"
        string_val: "/content/drive/MyDrive/heartbeat artifact/00641.wav"
        string_val: "/content/drive/MyDrive/heartbeat artifact/00655.wav"
        string_val: "/content/drive/MyDrive/heartbeat artifact/00667.wav"
        string_val: "/content/drive/MyDrive/heartbeat artifact/00721.wav"
        string_val: "/content/drive/MyDrive/heartbeat artifact/00399.wav"
        string_val: "/content/drive/MyDrive/heartbeat artifact/00732.wav"
        string_val: "/content/drive/MyDrive/heartbeat artifact/00645.wav"
        string_val: "/content/drive/MyDrive/heartbeat artifact/00675.wav"
        string_val: "/content/drive/MyDrive/heartbeat artifact/00683.wav"
        string_val: "/content/drive/MyDrive/heartbeat artifact/00689.wav"
        string_val: "/content/drive/MyDrive/heartbeat artifact/00722.wav"
        string_val: "/content/drive/MyDrive/heartbeat artifact/00698.wav"
        string_val: "/content/drive/MyDrive/heartbeat artifact/00692.wav"
        string_val: "/content/drive/MyDrive/heartbeat artifact/00396.wav"
        string_val: "/content/drive/MyDrive/heartbeat artifact/00730.wav"
        string_val: "/content/drive/MyDrive/heartbeat artifact/00643.wav"
        string_val: "/content/drive/MyDrive/heartbeat artifact/00711.wav"
        string_val: "/content/drive/MyDrive/heartbeat artifact/00673.wav"
        string_val: "/content/drive/MyDrive/heartbeat artifact/00691.wav"
        string_val: "/content/drive/MyDrive/heartbeat artifact/00699.wav"
        string_val: "/content/drive/MyDrive/heartbeat artifact/00397.wav"
        string_val: "/content/drive/MyDrive/heartbeat artifact/00666.wav"
        string_val: "/content/drive/MyDrive/heartbeat artifact/00703.wav"
        string_val: "/content/drive/MyDrive/heartbeat artifact/00709.wav"
        string_val: "/content/drive/MyDrive/heartbeat artifact/00710.wav"
        string_val: "/content/drive/MyDrive/heartbeat artifact/00648.wav"
        string_val: "/content/drive/MyDrive/heartbeat artifact/00725.wav"
        string_val: "/content/drive/MyDrive/heartbeat artifact/00696.wav"
        string_val: "/content/drive/MyDrive/heartbeat artifact/00684.wav"
        string_val: "/content/drive/MyDrive/heartbeat artifact/00716.wav"
        string_val: "/content/drive/MyDrive/heartbeat artifact/00660.wav"
        string_val: "/content/drive/MyDrive/heartbeat artifact/00400.wav"
        string_val: "/content/drive/MyDrive/heartbeat artifact/00704.wav"
        string_val: "/content/drive/MyDrive/heartbeat artifact/00678.wav"
        string_val: "/content/drive/MyDrive/heartbeat artifact/00680.wav"
        string_val: "/content/drive/MyDrive/heartbeat artifact/00723.wav"
        string_val: "/content/drive/MyDrive/heartbeat artifact/00693.wav"
        string_val: "/content/drive/MyDrive/heartbeat artifact/00657.wav"
        string_val: "/content/drive/MyDrive/heartbeat artifact/00663.wav"
        string_val: "/content/drive/MyDrive/heartbeat artifact/00672.wav"
        string_val: "/content/drive/MyDrive/heartbeat artifact/00685.wav"
        string_val: "/content/drive/MyDrive/heartbeat artifact/00719.wav"
        string_val: "/content/drive/MyDrive/heartbeat artifact/00670.wav"
        string_val: "/content/drive/MyDrive/heartbeat artifact/00705.wav"
        string_val: "/content/drive/MyDrive/heartbeat artifact/00718.wav"
        string_val: "/content/drive/MyDrive/heartbeat artifact/00731.wav"
        string_val: "/content/drive/MyDrive/heartbeat artifact/00671.wav"
        string_val: "/content/drive/MyDrive/heartbeat artifact/00652.wav"
        string_val: "/content/drive/MyDrive/heartbeat artifact/00404.wav"
        string_val: "/content/drive/MyDrive/heartbeat artifact/00695.wav"
        string_val: "/content/drive/MyDrive/heartbeat artifact/00720.wav"
        string_val: "/content/drive/MyDrive/heartbeat artifact/00700.wav"
        string_val: "/content/drive/MyDrive/heartbeat artifact/00644.wav"
        string_val: "/content/drive/MyDrive/heartbeat artifact/00681.wav"
        string_val: "/content/drive/MyDrive/heartbeat artifact/00712.wav"
        string_val: "/content/drive/MyDrive/heartbeat artifact/00401.wav"
        string_val: "/content/drive/MyDrive/heartbeat artifact/00653.wav"
        string_val: "/content/drive/MyDrive/heartbeat artifact/00715.wav"
        string_val: "/content/drive/MyDrive/heartbeat artifact/00687.wav"
        string_val: "/content/drive/MyDrive/heartbeat artifact/00706.wav"
        string_val: "/content/drive/MyDrive/heartbeat artifact/00697.wav"
        string_val: "/content/drive/MyDrive/heartbeat artifact/00714.wav"
        string_val: "/content/drive/MyDrive/heartbeat artifact/00729.wav"
        string_val: "/content/drive/MyDrive/heartbeat artifact/00649.wav"
        string_val: "/content/drive/MyDrive/heartbeat artifact/00402.wav"
        string_val: "/content/drive/MyDrive/heartbeat artifact/00724.wav"
        string_val: "/content/drive/MyDrive/heartbeat artifact/00713.wav"
        string_val: "/content/drive/MyDrive/heartbeat artifact/00701.wav"
        string_val: "/content/drive/MyDrive/heartbeat artifact/00662.wav"
        string_val: "/content/drive/MyDrive/heartbeat artifact/00638.wav"
        string_val: "/content/drive/MyDrive/heartbeat artifact/00679.wav"
        string_val: "/content/drive/MyDrive/heartbeat artifact/00371.wav"
        string_val: "/content/drive/MyDrive/heartbeat artifact/00686.wav"
        string_val: "/content/drive/MyDrive/heartbeat artifact/00688.wav"
        string_val: "/content/drive/MyDrive/heartbeat artifact/00694.wav"
        string_val: "/content/drive/MyDrive/heartbeat artifact/00682.wav"
        string_val: "/content/drive/MyDrive/heartbeat artifact/00674.wav"
        string_val: "/content/drive/MyDrive/heartbeat artifact/00654.wav"
        string_val: "/content/drive/MyDrive/heartbeat artifact/00639.wav"
        string_val: "/content/drive/MyDrive/heartbeat artifact/00659.wav"
        string_val: "/content/drive/MyDrive/heartbeat artifact/00702.wav"
        string_val: "/content/drive/MyDrive/heartbeat artifact/00656.wav"
        string_val: "/content/drive/MyDrive/heartbeat artifact/00665.wav"
        string_val: "/content/drive/MyDrive/heartbeat artifact/00676.wav"
        string_val: "/content/drive/MyDrive/heartbeat artifact/00717.wav"
        string_val: "/content/drive/MyDrive/heartbeat artifact/00661.wav"
        string_val: "/content/drive/MyDrive/heartbeat artifact/00707.wav"
        string_val: "/content/drive/MyDrive/heartbeat artifact/00650.wav"
        string_val: "/content/drive/MyDrive/heartbeat artifact/00727.wav"
        string_val: "/content/drive/MyDrive/heartbeat artifact/00646.wav"
        string_val: "/content/drive/MyDrive/heartbeat artifact/00669.wav"
        string_val: "/content/drive/MyDrive/heartbeat artifact/00398.wav"
        string_val: "/content/drive/MyDrive/heartbeat artifact/00651.wav"
        string_val: "/content/drive/MyDrive/heartbeat artifact/00405.wav"
        string_val: "/content/drive/MyDrive/heartbeat artifact/00786.wav"
        string_val: "/content/drive/MyDrive/heartbeat artifact/00805.wav"
        string_val: "/content/drive/MyDrive/heartbeat artifact/00797.wav"
        string_val: "/content/drive/MyDrive/heartbeat artifact/00747.wav"
        string_val: "/content/drive/MyDrive/heartbeat artifact/00759.wav"
        string_val: "/content/drive/MyDrive/heartbeat artifact/00753.wav"
        string_val: "/content/drive/MyDrive/heartbeat artifact/00762.wav"
        string_val: "/content/drive/MyDrive/heartbeat artifact/00782.wav"
        string_val: "/content/drive/MyDrive/heartbeat artifact/00806.wav"
        string_val: "/content/drive/MyDrive/heartbeat artifact/00823.wav"
        string_val: "/content/drive/MyDrive/heartbeat artifact/00758.wav"
        string_val: "/content/drive/MyDrive/heartbeat artifact/00768.wav"
        string_val: "/content/drive/MyDrive/heartbeat artifact/00745.wav"
        string_val: "/content/drive/MyDrive/heartbeat artifact/00808.wav"
        string_val: "/content/drive/MyDrive/heartbeat artifact/00771.wav"
        string_val: "/content/drive/MyDrive/heartbeat artifact/00760.wav"
        string_val: "/content/drive/MyDrive/heartbeat artifact/00770.wav"
        string_val: "/content/drive/MyDrive/heartbeat artifact/00784.wav"
        string_val: "/content/drive/MyDrive/heartbeat artifact/00409.wav"
        string_val: "/content/drive/MyDrive/heartbeat artifact/00778.wav"
        string_val: "/content/drive/MyDrive/heartbeat artifact/00776.wav"
        string_val: "/content/drive/MyDrive/heartbeat artifact/00757.wav"
        string_val: "/content/drive/MyDrive/heartbeat artifact/00411.wav"
        string_val: "/content/drive/MyDrive/heartbeat artifact/00733.wav"
        string_val: "/content/drive/MyDrive/heartbeat artifact/00780.wav"
        string_val: "/content/drive/MyDrive/heartbeat artifact/00748.wav"
        string_val: "/content/drive/MyDrive/heartbeat artifact/00774.wav"
        string_val: "/content/drive/MyDrive/heartbeat artifact/00817.wav"
        string_val: "/content/drive/MyDrive/heartbeat artifact/00820.wav"
        string_val: "/content/drive/MyDrive/heartbeat artifact/00788.wav"
        string_val: "/content/drive/MyDrive/heartbeat artifact/00783.wav"
        string_val: "/content/drive/MyDrive/heartbeat artifact/00819.wav"
        string_val: "/content/drive/MyDrive/heartbeat artifact/00785.wav"
        string_val: "/content/drive/MyDrive/heartbeat artifact/00372.wav"
        string_val: "/content/drive/MyDrive/heartbeat artifact/00739.wav"
        string_val: "/content/drive/MyDrive/heartbeat artifact/00798.wav"
        string_val: "/content/drive/MyDrive/heartbeat artifact/00743.wav"
        string_val: "/content/drive/MyDrive/heartbeat artifact/00752.wav"
        string_val: "/content/drive/MyDrive/heartbeat artifact/00804.wav"
        string_val: "/content/drive/MyDrive/heartbeat artifact/00742.wav"
        string_val: "/content/drive/MyDrive/heartbeat artifact/00810.wav"
        string_val: "/content/drive/MyDrive/heartbeat artifact/00772.wav"
        string_val: "/content/drive/MyDrive/heartbeat artifact/00755.wav"
        string_val: "/content/drive/MyDrive/heartbeat artifact/00761.wav"
        string_val: "/content/drive/MyDrive/heartbeat artifact/00775.wav"
        string_val: "/content/drive/MyDrive/heartbeat artifact/00792.wav"
        string_val: "/content/drive/MyDrive/heartbeat artifact/00767.wav"
        string_val: "/content/drive/MyDrive/heartbeat artifact/00764.wav"
        string_val: "/content/drive/MyDrive/heartbeat artifact/00807.wav"
        string_val: "/content/drive/MyDrive/heartbeat artifact/00777.wav"
        string_val: "/content/drive/MyDrive/heartbeat artifact/00407.wav"
        string_val: "/content/drive/MyDrive/heartbeat artifact/00735.wav"
        string_val: "/content/drive/MyDrive/heartbeat artifact/00824.wav"
        string_val: "/content/drive/MyDrive/heartbeat artifact/00809.wav"
        string_val: "/content/drive/MyDrive/heartbeat artifact/00766.wav"
        string_val: "/content/drive/MyDrive/heartbeat artifact/00734.wav"
        string_val: "/content/drive/MyDrive/heartbeat artifact/00756.wav"
        string_val: "/content/drive/MyDrive/heartbeat artifact/00746.wav"
        string_val: "/content/drive/MyDrive/heartbeat artifact/00406.wav"
        string_val: "/content/drive/MyDrive/heartbeat artifact/00749.wav"
        string_val: "/content/drive/MyDrive/heartbeat artifact/00787.wav"
        string_val: "/content/drive/MyDrive/heartbeat artifact/00769.wav"
        string_val: "/content/drive/MyDrive/heartbeat artifact/00818.wav"
        string_val: "/content/drive/MyDrive/heartbeat artifact/00413.wav"
        string_val: "/content/drive/MyDrive/heartbeat artifact/00793.wav"
        string_val: "/content/drive/MyDrive/heartbeat artifact/00815.wav"
        string_val: "/content/drive/MyDrive/heartbeat artifact/00790.wav"
        string_val: "/content/drive/MyDrive/heartbeat artifact/00773.wav"
        string_val: "/content/drive/MyDrive/heartbeat artifact/00811.wav"
        string_val: "/content/drive/MyDrive/heartbeat artifact/00791.wav"
        string_val: "/content/drive/MyDrive/heartbeat artifact/00408.wav"
        string_val: "/content/drive/MyDrive/heartbeat artifact/00750.wav"
        string_val: "/content/drive/MyDrive/heartbeat artifact/00740.wav"
        string_val: "/content/drive/MyDrive/heartbeat artifact/00794.wav"
        string_val: "/content/drive/MyDrive/heartbeat artifact/00751.wav"
        string_val: "/content/drive/MyDrive/heartbeat artifact/00795.wav"
        string_val: "/content/drive/MyDrive/heartbeat artifact/00737.wav"
        string_val: "/content/drive/MyDrive/heartbeat artifact/00754.wav"
        string_val: "/content/drive/MyDrive/heartbeat artifact/00800.wav"
        string_val: "/content/drive/MyDrive/heartbeat artifact/00812.wav"
        string_val: "/content/drive/MyDrive/heartbeat artifact/00827.wav"
        string_val: "/content/drive/MyDrive/heartbeat artifact/00799.wav"
        string_val: "/content/drive/MyDrive/heartbeat artifact/00736.wav"
        string_val: "/content/drive/MyDrive/heartbeat artifact/00822.wav"
        string_val: "/content/drive/MyDrive/heartbeat artifact/00816.wav"
        string_val: "/content/drive/MyDrive/heartbeat artifact/00738.wav"
        string_val: "/content/drive/MyDrive/heartbeat artifact/00789.wav"
        string_val: "/content/drive/MyDrive/heartbeat artifact/00779.wav"
        string_val: "/content/drive/MyDrive/heartbeat artifact/00813.wav"
        string_val: "/content/drive/MyDrive/heartbeat artifact/00821.wav"
        string_val: "/content/drive/MyDrive/heartbeat artifact/00803.wav"
        string_val: "/content/drive/MyDrive/heartbeat artifact/00765.wav"
        string_val: "/content/drive/MyDrive/heartbeat artifact/00802.wav"
        string_val: "/content/drive/MyDrive/heartbeat artifact/00825.wav"
        string_val: "/content/drive/MyDrive/heartbeat artifact/00744.wav"
        string_val: "/content/drive/MyDrive/heartbeat artifact/00814.wav"
        string_val: "/content/drive/MyDrive/heartbeat artifact/00796.wav"
        string_val: "/content/drive/MyDrive/heartbeat artifact/00763.wav"
        string_val: "/content/drive/MyDrive/heartbeat artifact/00801.wav"
        string_val: "/content/drive/MyDrive/heartbeat artifact/00410.wav"
        string_val: "/content/drive/MyDrive/heartbeat artifact/00781.wav"
        string_val: "/content/drive/MyDrive/heartbeat artifact/00741.wav"
        string_val: "/content/drive/MyDrive/heartbeat artifact/00412.wav"
        string_val: "/content/drive/MyDrive/heartbeat artifact/00826.wav"
        string_val: "/content/drive/MyDrive/heartbeat artifact/00427.wav"
        string_val: "/content/drive/MyDrive/heartbeat artifact/00861.wav"
        string_val: "/content/drive/MyDrive/heartbeat artifact/00450.wav"
        string_val: "/content/drive/MyDrive/heartbeat artifact/00376.wav"
        string_val: "/content/drive/MyDrive/heartbeat artifact/00435.wav"
        string_val: "/content/drive/MyDrive/heartbeat artifact/00463.wav"
        string_val: "/content/drive/MyDrive/heartbeat artifact/00880.wav"
        string_val: "/content/drive/MyDrive/heartbeat artifact/00433.wav"
        string_val: "/content/drive/MyDrive/heartbeat artifact/00467.wav"
        string_val: "/content/drive/MyDrive/heartbeat artifact/00415.wav"
        string_val: "/content/drive/MyDrive/heartbeat artifact/00419.wav"
        string_val: "/content/drive/MyDrive/heartbeat artifact/00426.wav"
        string_val: "/content/drive/MyDrive/heartbeat artifact/00456.wav"
        string_val: "/content/drive/MyDrive/heartbeat artifact/00844.wav"
        string_val: "/content/drive/MyDrive/heartbeat artifact/00828.wav"
        string_val: "/content/drive/MyDrive/heartbeat artifact/00454.wav"
        string_val: "/content/drive/MyDrive/heartbeat artifact/00375.wav"
        string_val: "/content/drive/MyDrive/heartbeat artifact/00862.wav"
        string_val: "/content/drive/MyDrive/heartbeat artifact/00860.wav"
        string_val: "/content/drive/MyDrive/heartbeat artifact/00423.wav"
        string_val: "/content/drive/MyDrive/heartbeat artifact/00437.wav"
        string_val: "/content/drive/MyDrive/heartbeat artifact/00464.wav"
        string_val: "/content/drive/MyDrive/heartbeat artifact/00850.wav"
        string_val: "/content/drive/MyDrive/heartbeat artifact/00831.wav"
        string_val: "/content/drive/MyDrive/heartbeat artifact/00854.wav"
        string_val: "/content/drive/MyDrive/heartbeat artifact/00455.wav"
        string_val: "/content/drive/MyDrive/heartbeat artifact/00453.wav"
        string_val: "/content/drive/MyDrive/heartbeat artifact/00869.wav"
        string_val: "/content/drive/MyDrive/heartbeat artifact/00429.wav"
        string_val: "/content/drive/MyDrive/heartbeat artifact/00868.wav"
        string_val: "/content/drive/MyDrive/heartbeat artifact/00832.wav"
        string_val: "/content/drive/MyDrive/heartbeat artifact/00434.wav"
        string_val: "/content/drive/MyDrive/heartbeat artifact/00432.wav"
        string_val: "/content/drive/MyDrive/heartbeat artifact/00461.wav"
        string_val: "/content/drive/MyDrive/heartbeat artifact/00842.wav"
        string_val: "/content/drive/MyDrive/heartbeat artifact/00430.wav"
        string_val: "/content/drive/MyDrive/heartbeat artifact/00443.wav"
        string_val: "/content/drive/MyDrive/heartbeat artifact/00855.wav"
        string_val: "/content/drive/MyDrive/heartbeat artifact/00837.wav"
        string_val: "/content/drive/MyDrive/heartbeat artifact/00377.wav"
        string_val: "/content/drive/MyDrive/heartbeat artifact/00462.wav"
        string_val: "/content/drive/MyDrive/heartbeat artifact/00870.wav"
        string_val: "/content/drive/MyDrive/heartbeat artifact/00438.wav"
        string_val: "/content/drive/MyDrive/heartbeat artifact/00847.wav"
        string_val: "/content/drive/MyDrive/heartbeat artifact/00859.wav"
        string_val: "/content/drive/MyDrive/heartbeat artifact/00440.wav"
        string_val: "/content/drive/MyDrive/heartbeat artifact/00421.wav"
        string_val: "/content/drive/MyDrive/heartbeat artifact/00414.wav"
        string_val: "/content/drive/MyDrive/heartbeat artifact/00449.wav"
        string_val: "/content/drive/MyDrive/heartbeat artifact/00838.wav"
        string_val: "/content/drive/MyDrive/heartbeat artifact/00853.wav"
        string_val: "/content/drive/MyDrive/heartbeat artifact/00867.wav"
        string_val: "/content/drive/MyDrive/heartbeat artifact/00841.wav"
        string_val: "/content/drive/MyDrive/heartbeat artifact/00846.wav"
        string_val: "/content/drive/MyDrive/heartbeat artifact/00858.wav"
        string_val: "/content/drive/MyDrive/heartbeat artifact/00458.wav"
        string_val: "/content/drive/MyDrive/heartbeat artifact/00852.wav"
        string_val: "/content/drive/MyDrive/heartbeat artifact/00424.wav"
        string_val: "/content/drive/MyDrive/heartbeat artifact/00451.wav"
        string_val: "/content/drive/MyDrive/heartbeat artifact/00865.wav"
        string_val: "/content/drive/MyDrive/heartbeat artifact/00871.wav"
        string_val: "/content/drive/MyDrive/heartbeat artifact/00436.wav"
        string_val: "/content/drive/MyDrive/heartbeat artifact/00836.wav"
        string_val: "/content/drive/MyDrive/heartbeat artifact/00863.wav"
        string_val: "/content/drive/MyDrive/heartbeat artifact/00830.wav"
        string_val: "/content/drive/MyDrive/heartbeat artifact/00418.wav"
        string_val: "/content/drive/MyDrive/heartbeat artifact/00833.wav"
        string_val: "/content/drive/MyDrive/heartbeat artifact/00452.wav"
        string_val: "/content/drive/MyDrive/heartbeat artifact/00373.wav"
        string_val: "/content/drive/MyDrive/heartbeat artifact/00446.wav"
        string_val: "/content/drive/MyDrive/heartbeat artifact/00840.wav"
        string_val: "/content/drive/MyDrive/heartbeat artifact/00416.wav"
        string_val: "/content/drive/MyDrive/heartbeat artifact/00445.wav"
        string_val: "/content/drive/MyDrive/heartbeat artifact/00839.wav"
        string_val: "/content/drive/MyDrive/heartbeat artifact/00851.wav"
        string_val: "/content/drive/MyDrive/heartbeat artifact/00444.wav"
        string_val: "/content/drive/MyDrive/heartbeat artifact/00447.wav"
        string_val: "/content/drive/MyDrive/heartbeat artifact/00431.wav"
        string_val: "/content/drive/MyDrive/heartbeat artifact/00374.wav"
        string_val: "/content/drive/MyDrive/heartbeat artifact/00829.wav"
        string_val: "/content/drive/MyDrive/heartbeat artifact/00448.wav"
        string_val: "/content/drive/MyDrive/heartbeat artifact/00459.wav"
        string_val: "/content/drive/MyDrive/heartbeat artifact/00834.wav"
        string_val: "/content/drive/MyDrive/heartbeat artifact/00428.wav"
        string_val: "/content/drive/MyDrive/heartbeat artifact/00439.wav"
        string_val: "/content/drive/MyDrive/heartbeat artifact/00835.wav"
        string_val: "/content/drive/MyDrive/heartbeat artifact/00856.wav"
        string_val: "/content/drive/MyDrive/heartbeat artifact/00465.wav"
        string_val: "/content/drive/MyDrive/heartbeat artifact/00866.wav"
        string_val: "/content/drive/MyDrive/heartbeat artifact/00441.wav"
        string_val: "/content/drive/MyDrive/heartbeat artifact/00460.wav"
        string_val: "/content/drive/MyDrive/heartbeat artifact/00848.wav"
        string_val: "/content/drive/MyDrive/heartbeat artifact/00849.wav"
        string_val: "/content/drive/MyDrive/heartbeat artifact/00422.wav"
        string_val: "/content/drive/MyDrive/heartbeat artifact/00864.wav"
        string_val: "/content/drive/MyDrive/heartbeat artifact/00857.wav"
        string_val: "/content/drive/MyDrive/heartbeat artifact/00425.wav"
        string_val: "/content/drive/MyDrive/heartbeat artifact/00442.wav"
        string_val: "/content/drive/MyDrive/heartbeat artifact/00417.wav"
        string_val: "/content/drive/MyDrive/heartbeat artifact/00457.wav"
        string_val: "/content/drive/MyDrive/heartbeat artifact/00466.wav"
        string_val: "/content/drive/MyDrive/heartbeat artifact/00845.wav"
        string_val: "/content/drive/MyDrive/heartbeat artifact/00420.wav"
        string_val: "/content/drive/MyDrive/heartbeat artifact/00843.wav"
        string_val: "/content/drive/MyDrive/heartbeat artifact/00990.wav"
        string_val: "/content/drive/MyDrive/heartbeat artifact/001043.wav"
        string_val: "/content/drive/MyDrive/heartbeat artifact/00982.wav"
        string_val: "/content/drive/MyDrive/heartbeat artifact/001012.wav"
        string_val: "/content/drive/MyDrive/heartbeat artifact/001016.wav"
        string_val: "/content/drive/MyDrive/heartbeat artifact/001054.wav"
        string_val: "/content/drive/MyDrive/heartbeat artifact/001068.wav"
        string_val: "/content/drive/MyDrive/heartbeat artifact/00889.wav"
        string_val: "/content/drive/MyDrive/heartbeat artifact/001055.wav"
        string_val: "/content/drive/MyDrive/heartbeat artifact/001066.wav"
        string_val: "/content/drive/MyDrive/heartbeat artifact/001062.wav"
        string_val: "/content/drive/MyDrive/heartbeat artifact/001021.wav"
        string_val: "/content/drive/MyDrive/heartbeat artifact/001007.wav"
        string_val: "/content/drive/MyDrive/heartbeat artifact/001014.wav"
        string_val: "/content/drive/MyDrive/heartbeat artifact/001004.wav"
        string_val: "/content/drive/MyDrive/heartbeat artifact/001039.wav"
        string_val: "/content/drive/MyDrive/heartbeat artifact/001009.wav"
        string_val: "/content/drive/MyDrive/heartbeat artifact/001052.wav"
        string_val: "/content/drive/MyDrive/heartbeat artifact/001013.wav"
        string_val: "/content/drive/MyDrive/heartbeat artifact/001038.wav"
        string_val: "/content/drive/MyDrive/heartbeat artifact/001017.wav"
        string_val: "/content/drive/MyDrive/heartbeat artifact/001061.wav"
        string_val: "/content/drive/MyDrive/heartbeat artifact/001003.wav"
        string_val: "/content/drive/MyDrive/heartbeat artifact/001041.wav"
        string_val: "/content/drive/MyDrive/heartbeat artifact/001008.wav"
        string_val: "/content/drive/MyDrive/heartbeat artifact/001050.wav"
        string_val: "/content/drive/MyDrive/heartbeat artifact/00971.wav"
        string_val: "/content/drive/MyDrive/heartbeat artifact/001006.wav"
        string_val: "/content/drive/MyDrive/heartbeat artifact/001018.wav"
        string_val: "/content/drive/MyDrive/heartbeat artifact/00980.wav"
        string_val: "/content/drive/MyDrive/heartbeat artifact/001026.wav"
        string_val: "/content/drive/MyDrive/heartbeat artifact/00994.wav"
        string_val: "/content/drive/MyDrive/heartbeat artifact/001067.wav"
        string_val: "/content/drive/MyDrive/heartbeat artifact/001011.wav"
        string_val: "/content/drive/MyDrive/heartbeat artifact/001015.wav"
        string_val: "/content/drive/MyDrive/heartbeat artifact/00883.wav"
        string_val: "/content/drive/MyDrive/heartbeat artifact/001047.wav"
        string_val: "/content/drive/MyDrive/heartbeat artifact/001010.wav"
        string_val: "/content/drive/MyDrive/heartbeat artifact/001035.wav"
        string_val: "/content/drive/MyDrive/heartbeat artifact/00881.wav"
        string_val: "/content/drive/MyDrive/heartbeat artifact/001033.wav"
        string_val: "/content/drive/MyDrive/heartbeat artifact/00997.wav"
        string_val: "/content/drive/MyDrive/heartbeat artifact/00888.wav"
        string_val: "/content/drive/MyDrive/heartbeat artifact/00973.wav"
        string_val: "/content/drive/MyDrive/heartbeat artifact/001045.wav"
        string_val: "/content/drive/MyDrive/heartbeat artifact/00987.wav"
        string_val: "/content/drive/MyDrive/heartbeat artifact/001032.wav"
        string_val: "/content/drive/MyDrive/heartbeat artifact/001031.wav"
        string_val: "/content/drive/MyDrive/heartbeat artifact/00993.wav"
        string_val: "/content/drive/MyDrive/heartbeat artifact/001001.wav"
        string_val: "/content/drive/MyDrive/heartbeat artifact/00992.wav"
        string_val: "/content/drive/MyDrive/heartbeat artifact/001063.wav"
        string_val: "/content/drive/MyDrive/heartbeat artifact/00978.wav"
        string_val: "/content/drive/MyDrive/heartbeat artifact/001040.wav"
        string_val: "/content/drive/MyDrive/heartbeat artifact/00998.wav"
        string_val: "/content/drive/MyDrive/heartbeat artifact/00988.wav"
        string_val: "/content/drive/MyDrive/heartbeat artifact/00979.wav"
        string_val: "/content/drive/MyDrive/heartbeat artifact/00970.wav"
        string_val: "/content/drive/MyDrive/heartbeat artifact/00882.wav"
        string_val: "/content/drive/MyDrive/heartbeat artifact/00995.wav"
        string_val: "/content/drive/MyDrive/heartbeat artifact/001036.wav"
        string_val: "/content/drive/MyDrive/heartbeat artifact/001057.wav"
        string_val: "/content/drive/MyDrive/heartbeat artifact/001022.wav"
        string_val: "/content/drive/MyDrive/heartbeat artifact/001064.wav"
        string_val: "/content/drive/MyDrive/heartbeat artifact/001023.wav"
        string_val: "/content/drive/MyDrive/heartbeat artifact/00885.wav"
        string_val: "/content/drive/MyDrive/heartbeat artifact/001028.wav"
        string_val: "/content/drive/MyDrive/heartbeat artifact/00991.wav"
        string_val: "/content/drive/MyDrive/heartbeat artifact/00986.wav"
        string_val: "/content/drive/MyDrive/heartbeat artifact/001042.wav"
        string_val: "/content/drive/MyDrive/heartbeat artifact/001025.wav"
        string_val: "/content/drive/MyDrive/heartbeat artifact/00996.wav"
        string_val: "/content/drive/MyDrive/heartbeat artifact/001049.wav"
        string_val: "/content/drive/MyDrive/heartbeat artifact/001002.wav"
        string_val: "/content/drive/MyDrive/heartbeat artifact/001053.wav"
        string_val: "/content/drive/MyDrive/heartbeat artifact/001000.wav"
        string_val: "/content/drive/MyDrive/heartbeat artifact/00974.wav"
        string_val: "/content/drive/MyDrive/heartbeat artifact/001059.wav"
        string_val: "/content/drive/MyDrive/heartbeat artifact/001020.wav"
        string_val: "/content/drive/MyDrive/heartbeat artifact/001034.wav"
        string_val: "/content/drive/MyDrive/heartbeat artifact/001048.wav"
        string_val: "/content/drive/MyDrive/heartbeat artifact/001029.wav"
        string_val: "/content/drive/MyDrive/heartbeat artifact/00981.wav"
        string_val: "/content/drive/MyDrive/heartbeat artifact/00976.wav"
        string_val: "/content/drive/MyDrive/heartbeat artifact/001019.wav"
        string_val: "/content/drive/MyDrive/heartbeat artifact/001056.wav"
        string_val: "/content/drive/MyDrive/heartbeat artifact/001037.wav"
        string_val: "/content/drive/MyDrive/heartbeat artifact/00887.wav"
        string_val: "/content/drive/MyDrive/heartbeat artifact/00985.wav"
        string_val: "/content/drive/MyDrive/heartbeat artifact/001069.wav"
        string_val: "/content/drive/MyDrive/heartbeat artifact/001005.wav"
        string_val: "/content/drive/MyDrive/heartbeat artifact/001024.wav"
        string_val: "/content/drive/MyDrive/heartbeat artifact/00983.wav"
        string_val: "/content/drive/MyDrive/heartbeat artifact/00972.wav"
        string_val: "/content/drive/MyDrive/heartbeat artifact/001058.wav"
        string_val: "/content/drive/MyDrive/heartbeat artifact/00984.wav"
        string_val: "/content/drive/MyDrive/heartbeat artifact/00886.wav"
        string_val: "/content/drive/MyDrive/heartbeat artifact/00999.wav"
        string_val: "/content/drive/MyDrive/heartbeat artifact/00884.wav"
        string_val: "/content/drive/MyDrive/heartbeat artifact/001060.wav"
        string_val: "/content/drive/MyDrive/heartbeat artifact/00977.wav"
        string_val: "/content/drive/MyDrive/heartbeat artifact/001030.wav"
        string_val: "/content/drive/MyDrive/heartbeat artifact/001065.wav"
        string_val: "/content/drive/MyDrive/heartbeat artifact/00989.wav"
        string_val: "/content/drive/MyDrive/heartbeat artifact/00975.wav"
        string_val: "/content/drive/MyDrive/heartbeat artifact/001027.wav"
        string_val: "/content/drive/MyDrive/heartbeat artifact/001044.wav"
        string_val: "/content/drive/MyDrive/heartbeat artifact/001051.wav"
        string_val: "/content/drive/MyDrive/heartbeat artifact/001046.wav"
        string_val: "/content/drive/MyDrive/heartbeat artifact/001100.wav"
        string_val: "/content/drive/MyDrive/heartbeat artifact/001072.wav"
        string_val: "/content/drive/MyDrive/heartbeat artifact/001077.wav"
        string_val: "/content/drive/MyDrive/heartbeat artifact/001090.wav"
        string_val: "/content/drive/MyDrive/heartbeat artifact/001145.wav"
        string_val: "/content/drive/MyDrive/heartbeat artifact/001162.wav"
        string_val: "/content/drive/MyDrive/heartbeat artifact/001158.wav"
        string_val: "/content/drive/MyDrive/heartbeat artifact/001112.wav"
        string_val: "/content/drive/MyDrive/heartbeat artifact/001110.wav"
        string_val: "/content/drive/MyDrive/heartbeat artifact/001156.wav"
        string_val: "/content/drive/MyDrive/heartbeat artifact/001127.wav"
        string_val: "/content/drive/MyDrive/heartbeat artifact/001099.wav"
        string_val: "/content/drive/MyDrive/heartbeat artifact/001116.wav"
        string_val: "/content/drive/MyDrive/heartbeat artifact/001129.wav"
        string_val: "/content/drive/MyDrive/heartbeat artifact/001147.wav"
        string_val: "/content/drive/MyDrive/heartbeat artifact/001094.wav"
        string_val: "/content/drive/MyDrive/heartbeat artifact/001085.wav"
        string_val: "/content/drive/MyDrive/heartbeat artifact/001152.wav"
        string_val: "/content/drive/MyDrive/heartbeat artifact/001075.wav"
        string_val: "/content/drive/MyDrive/heartbeat artifact/001118.wav"
        string_val: "/content/drive/MyDrive/heartbeat artifact/001124.wav"
        string_val: "/content/drive/MyDrive/heartbeat artifact/001141.wav"
        string_val: "/content/drive/MyDrive/heartbeat artifact/001125.wav"
        string_val: "/content/drive/MyDrive/heartbeat artifact/001082.wav"
        string_val: "/content/drive/MyDrive/heartbeat artifact/001135.wav"
        string_val: "/content/drive/MyDrive/heartbeat artifact/00893.wav"
        string_val: "/content/drive/MyDrive/heartbeat artifact/001115.wav"
        string_val: "/content/drive/MyDrive/heartbeat artifact/001130.wav"
        string_val: "/content/drive/MyDrive/heartbeat artifact/00897.wav"
        string_val: "/content/drive/MyDrive/heartbeat artifact/001160.wav"
        string_val: "/content/drive/MyDrive/heartbeat artifact/001137.wav"
        string_val: "/content/drive/MyDrive/heartbeat artifact/00895.wav"
        string_val: "/content/drive/MyDrive/heartbeat artifact/001105.wav"
        string_val: "/content/drive/MyDrive/heartbeat artifact/001078.wav"
        string_val: "/content/drive/MyDrive/heartbeat artifact/001117.wav"
        string_val: "/content/drive/MyDrive/heartbeat artifact/001165.wav"
        string_val: "/content/drive/MyDrive/heartbeat artifact/001095.wav"
        string_val: "/content/drive/MyDrive/heartbeat artifact/001159.wav"
        string_val: "/content/drive/MyDrive/heartbeat artifact/00872.wav"
        string_val: "/content/drive/MyDrive/heartbeat artifact/00892.wav"
        string_val: "/content/drive/MyDrive/heartbeat artifact/001150.wav"
        string_val: "/content/drive/MyDrive/heartbeat artifact/001161.wav"
        string_val: "/content/drive/MyDrive/heartbeat artifact/001134.wav"
        string_val: "/content/drive/MyDrive/heartbeat artifact/001098.wav"
        string_val: "/content/drive/MyDrive/heartbeat artifact/001144.wav"
        string_val: "/content/drive/MyDrive/heartbeat artifact/001133.wav"
        string_val: "/content/drive/MyDrive/heartbeat artifact/001103.wav"
        string_val: "/content/drive/MyDrive/heartbeat artifact/001091.wav"
        string_val: "/content/drive/MyDrive/heartbeat artifact/00896.wav"
        string_val: "/content/drive/MyDrive/heartbeat artifact/001108.wav"
        string_val: "/content/drive/MyDrive/heartbeat artifact/001089.wav"
        string_val: "/content/drive/MyDrive/heartbeat artifact/001104.wav"
        string_val: "/content/drive/MyDrive/heartbeat artifact/001080.wav"
        string_val: "/content/drive/MyDrive/heartbeat artifact/001076.wav"
        string_val: "/content/drive/MyDrive/heartbeat artifact/00890.wav"
        string_val: "/content/drive/MyDrive/heartbeat artifact/001121.wav"
        string_val: "/content/drive/MyDrive/heartbeat artifact/001163.wav"
        string_val: "/content/drive/MyDrive/heartbeat artifact/001126.wav"
        string_val: "/content/drive/MyDrive/heartbeat artifact/001167.wav"
        string_val: "/content/drive/MyDrive/heartbeat artifact/001097.wav"
        string_val: "/content/drive/MyDrive/heartbeat artifact/001143.wav"
        string_val: "/content/drive/MyDrive/heartbeat artifact/001153.wav"
        string_val: "/content/drive/MyDrive/heartbeat artifact/001131.wav"
        string_val: "/content/drive/MyDrive/heartbeat artifact/001083.wav"
        string_val: "/content/drive/MyDrive/heartbeat artifact/001086.wav"
        string_val: "/content/drive/MyDrive/heartbeat artifact/001140.wav"
        string_val: "/content/drive/MyDrive/heartbeat artifact/001070.wav"
        string_val: "/content/drive/MyDrive/heartbeat artifact/001138.wav"
        string_val: "/content/drive/MyDrive/heartbeat artifact/001123.wav"
        string_val: "/content/drive/MyDrive/heartbeat artifact/001114.wav"
        string_val: "/content/drive/MyDrive/heartbeat artifact/001073.wav"
        string_val: "/content/drive/MyDrive/heartbeat artifact/00898.wav"
        string_val: "/content/drive/MyDrive/heartbeat artifact/001109.wav"
        string_val: "/content/drive/MyDrive/heartbeat artifact/001107.wav"
        string_val: "/content/drive/MyDrive/heartbeat artifact/001151.wav"
        string_val: "/content/drive/MyDrive/heartbeat artifact/00891.wav"
        string_val: "/content/drive/MyDrive/heartbeat artifact/00899.wav"
        string_val: "/content/drive/MyDrive/heartbeat artifact/001084.wav"
        string_val: "/content/drive/MyDrive/heartbeat artifact/001154.wav"
        string_val: "/content/drive/MyDrive/heartbeat artifact/001111.wav"
        string_val: "/content/drive/MyDrive/heartbeat artifact/001166.wav"
        string_val: "/content/drive/MyDrive/heartbeat artifact/001164.wav"
        string_val: "/content/drive/MyDrive/heartbeat artifact/001142.wav"
        string_val: "/content/drive/MyDrive/heartbeat artifact/001146.wav"
        string_val: "/content/drive/MyDrive/heartbeat artifact/001079.wav"
        string_val: "/content/drive/MyDrive/heartbeat artifact/001096.wav"
        string_val: "/content/drive/MyDrive/heartbeat artifact/001119.wav"
        string_val: "/content/drive/MyDrive/heartbeat artifact/001132.wav"
        string_val: "/content/drive/MyDrive/heartbeat artifact/001101.wav"
        string_val: "/content/drive/MyDrive/heartbeat artifact/001102.wav"
        string_val: "/content/drive/MyDrive/heartbeat artifact/001122.wav"
        string_val: "/content/drive/MyDrive/heartbeat artifact/001071.wav"
        string_val: "/content/drive/MyDrive/heartbeat artifact/001106.wav"
        string_val: "/content/drive/MyDrive/heartbeat artifact/00894.wav"
        string_val: "/content/drive/MyDrive/heartbeat artifact/001149.wav"
        string_val: "/content/drive/MyDrive/heartbeat artifact/001120.wav"
        string_val: "/content/drive/MyDrive/heartbeat artifact/001136.wav"
        string_val: "/content/drive/MyDrive/heartbeat artifact/001148.wav"
        string_val: "/content/drive/MyDrive/heartbeat artifact/001093.wav"
        string_val: "/content/drive/MyDrive/heartbeat artifact/001113.wav"
        string_val: "/content/drive/MyDrive/heartbeat artifact/001155.wav"
        string_val: "/content/drive/MyDrive/heartbeat artifact/001092.wav"
        string_val: "/content/drive/MyDrive/heartbeat artifact/001139.wav"
        string_val: "/content/drive/MyDrive/heartbeat artifact/001088.wav"
        string_val: "/content/drive/MyDrive/heartbeat artifact/001087.wav"
        string_val: "/content/drive/MyDrive/heartbeat artifact/001081.wav"
        string_val: "/content/drive/MyDrive/heartbeat artifact/001074.wav"
        string_val: "/content/drive/MyDrive/heartbeat artifact/001157.wav"
        string_val: "/content/drive/MyDrive/heartbeat artifact/001128.wav"
        string_val: "/content/drive/MyDrive/heartbeat artifact/00900.wav"
        string_val: "/content/drive/MyDrive/heartbeat artifact/00938.wav"
        string_val: "/content/drive/MyDrive/heartbeat artifact/00939.wav"
        string_val: "/content/drive/MyDrive/heartbeat artifact/001208.wav"
        string_val: "/content/drive/MyDrive/heartbeat artifact/00943.wav"
        string_val: "/content/drive/MyDrive/heartbeat artifact/001202.wav"
        string_val: "/content/drive/MyDrive/heartbeat artifact/00875.wav"
        string_val: "/content/drive/MyDrive/heartbeat artifact/00944.wav"
        string_val: "/content/drive/MyDrive/heartbeat artifact/001182.wav"
        string_val: "/content/drive/MyDrive/heartbeat artifact/00912.wav"
        string_val: "/content/drive/MyDrive/heartbeat artifact/00934.wav"
        string_val: "/content/drive/MyDrive/heartbeat artifact/001206.wav"
        string_val: "/content/drive/MyDrive/heartbeat artifact/00874.wav"
        string_val: "/content/drive/MyDrive/heartbeat artifact/00904.wav"
        string_val: "/content/drive/MyDrive/heartbeat artifact/001216.wav"
        string_val: "/content/drive/MyDrive/heartbeat artifact/001212.wav"
        string_val: "/content/drive/MyDrive/heartbeat artifact/00940.wav"
        string_val: "/content/drive/MyDrive/heartbeat artifact/00902.wav"
        string_val: "/content/drive/MyDrive/heartbeat artifact/001183.wav"
        string_val: "/content/drive/MyDrive/heartbeat artifact/00941.wav"
        string_val: "/content/drive/MyDrive/heartbeat artifact/001219.wav"
        string_val: "/content/drive/MyDrive/heartbeat artifact/00930.wav"
        string_val: "/content/drive/MyDrive/heartbeat artifact/00908.wav"
        string_val: "/content/drive/MyDrive/heartbeat artifact/00921.wav"
        string_val: "/content/drive/MyDrive/heartbeat artifact/00932.wav"
        string_val: "/content/drive/MyDrive/heartbeat artifact/001226.wav"
        string_val: "/content/drive/MyDrive/heartbeat artifact/001224.wav"
        string_val: "/content/drive/MyDrive/heartbeat artifact/001179.wav"
        string_val: "/content/drive/MyDrive/heartbeat artifact/001186.wav"
        string_val: "/content/drive/MyDrive/heartbeat artifact/00945.wav"
        string_val: "/content/drive/MyDrive/heartbeat artifact/00931.wav"
        string_val: "/content/drive/MyDrive/heartbeat artifact/00877.wav"
        string_val: "/content/drive/MyDrive/heartbeat artifact/00933.wav"
        string_val: "/content/drive/MyDrive/heartbeat artifact/001209.wav"
        string_val: "/content/drive/MyDrive/heartbeat artifact/00929.wav"
        string_val: "/content/drive/MyDrive/heartbeat artifact/00942.wav"
        string_val: "/content/drive/MyDrive/heartbeat artifact/00920.wav"
        string_val: "/content/drive/MyDrive/heartbeat artifact/00901.wav"
        string_val: "/content/drive/MyDrive/heartbeat artifact/00907.wav"
        string_val: "/content/drive/MyDrive/heartbeat artifact/00903.wav"
        string_val: "/content/drive/MyDrive/heartbeat artifact/00914.wav"
        string_val: "/content/drive/MyDrive/heartbeat artifact/001221.wav"
        string_val: "/content/drive/MyDrive/heartbeat artifact/001204.wav"
        string_val: "/content/drive/MyDrive/heartbeat artifact/00927.wav"
        string_val: "/content/drive/MyDrive/heartbeat artifact/001180.wav"
        string_val: "/content/drive/MyDrive/heartbeat artifact/001201.wav"
        string_val: "/content/drive/MyDrive/heartbeat artifact/001192.wav"
        string_val: "/content/drive/MyDrive/heartbeat artifact/001203.wav"
        string_val: "/content/drive/MyDrive/heartbeat artifact/00876.wav"
        string_val: "/content/drive/MyDrive/heartbeat artifact/00910.wav"
        string_val: "/content/drive/MyDrive/heartbeat artifact/001176.wav"
        string_val: "/content/drive/MyDrive/heartbeat artifact/001215.wav"
        string_val: "/content/drive/MyDrive/heartbeat artifact/00913.wav"
        string_val: "/content/drive/MyDrive/heartbeat artifact/001175.wav"
        string_val: "/content/drive/MyDrive/heartbeat artifact/00905.wav"
        string_val: "/content/drive/MyDrive/heartbeat artifact/001187.wav"
        string_val: "/content/drive/MyDrive/heartbeat artifact/001210.wav"
        string_val: "/content/drive/MyDrive/heartbeat artifact/00915.wav"
        string_val: "/content/drive/MyDrive/heartbeat artifact/001170.wav"
        string_val: "/content/drive/MyDrive/heartbeat artifact/001217.wav"
        string_val: "/content/drive/MyDrive/heartbeat artifact/001213.wav"
        string_val: "/content/drive/MyDrive/heartbeat artifact/001173.wav"
        string_val: "/content/drive/MyDrive/heartbeat artifact/001190.wav"
        string_val: "/content/drive/MyDrive/heartbeat artifact/001184.wav"
        string_val: "/content/drive/MyDrive/heartbeat artifact/001205.wav"
        string_val: "/content/drive/MyDrive/heartbeat artifact/001172.wav"
        string_val: "/content/drive/MyDrive/heartbeat artifact/00918.wav"
        string_val: "/content/drive/MyDrive/heartbeat artifact/001225.wav"
        string_val: "/content/drive/MyDrive/heartbeat artifact/001223.wav"
        string_val: "/content/drive/MyDrive/heartbeat artifact/001171.wav"
        string_val: "/content/drive/MyDrive/heartbeat artifact/001199.wav"
        string_val: "/content/drive/MyDrive/heartbeat artifact/00917.wav"
        string_val: "/content/drive/MyDrive/heartbeat artifact/001169.wav"
        string_val: "/content/drive/MyDrive/heartbeat artifact/001200.wav"
        string_val: "/content/drive/MyDrive/heartbeat artifact/001181.wav"
        string_val: "/content/drive/MyDrive/heartbeat artifact/001185.wav"
        string_val: "/content/drive/MyDrive/heartbeat artifact/00924.wav"
        string_val: "/content/drive/MyDrive/heartbeat artifact/001207.wav"
        string_val: "/content/drive/MyDrive/heartbeat artifact/001178.wav"
        string_val: "/content/drive/MyDrive/heartbeat artifact/001177.wav"
        string_val: "/content/drive/MyDrive/heartbeat artifact/001193.wav"
        string_val: "/content/drive/MyDrive/heartbeat artifact/00935.wav"
        string_val: "/content/drive/MyDrive/heartbeat artifact/00909.wav"
        string_val: "/content/drive/MyDrive/heartbeat artifact/001188.wav"
        string_val: "/content/drive/MyDrive/heartbeat artifact/00916.wav"
        string_val: "/content/drive/MyDrive/heartbeat artifact/001189.wav"
        string_val: "/content/drive/MyDrive/heartbeat artifact/001194.wav"
        string_val: "/content/drive/MyDrive/heartbeat artifact/00906.wav"
        string_val: "/content/drive/MyDrive/heartbeat artifact/001174.wav"
        string_val: "/content/drive/MyDrive/heartbeat artifact/001218.wav"
        string_val: "/content/drive/MyDrive/heartbeat artifact/00928.wav"
        string_val: "/content/drive/MyDrive/heartbeat artifact/001214.wav"
        string_val: "/content/drive/MyDrive/heartbeat artifact/00936.wav"
        string_val: "/content/drive/MyDrive/heartbeat artifact/001197.wav"
        string_val: "/content/drive/MyDrive/heartbeat artifact/001196.wav"
        string_val: "/content/drive/MyDrive/heartbeat artifact/00922.wav"
        string_val: "/content/drive/MyDrive/heartbeat artifact/00873.wav"
        string_val: "/content/drive/MyDrive/heartbeat artifact/001222.wav"
        string_val: "/content/drive/MyDrive/heartbeat artifact/00926.wav"
        string_val: "/content/drive/MyDrive/heartbeat artifact/001195.wav"
        string_val: "/content/drive/MyDrive/heartbeat artifact/001211.wav"
        string_val: "/content/drive/MyDrive/heartbeat artifact/00925.wav"
        string_val: "/content/drive/MyDrive/heartbeat artifact/001168.wav"
        string_val: "/content/drive/MyDrive/heartbeat artifact/001220.wav"
        string_val: "/content/drive/MyDrive/heartbeat artifact/001191.wav"
        string_val: "/content/drive/MyDrive/heartbeat artifact/00919.wav"
        string_val: "/content/drive/MyDrive/heartbeat artifact/001198.wav"
        string_val: "/content/drive/MyDrive/heartbeat artifact/00937.wav"
        string_val: "/content/drive/MyDrive/heartbeat artifact/00923.wav"
        string_val: "/content/drive/MyDrive/heartbeat artifact/00911.wav"
        string_val: "/content/drive/MyDrive/heartbeat artifact/00956.wav"
        string_val: "/content/drive/MyDrive/heartbeat artifact/00961.wav"
        string_val: "/content/drive/MyDrive/heartbeat artifact/00962.wav"
        string_val: "/content/drive/MyDrive/heartbeat artifact/00947.wav"
        string_val: "/content/drive/MyDrive/heartbeat artifact/00969.wav"
        string_val: "/content/drive/MyDrive/heartbeat artifact/00964.wav"
        string_val: "/content/drive/MyDrive/heartbeat artifact/00879.wav"
        string_val: "/content/drive/MyDrive/heartbeat artifact/00968.wav"
        string_val: "/content/drive/MyDrive/heartbeat artifact/00963.wav"
        string_val: "/content/drive/MyDrive/heartbeat artifact/00878.wav"
        string_val: "/content/drive/MyDrive/heartbeat artifact/00957.wav"
        string_val: "/content/drive/MyDrive/heartbeat artifact/00960.wav"
        string_val: "/content/drive/MyDrive/heartbeat artifact/00966.wav"
        string_val: "/content/drive/MyDrive/heartbeat artifact/00954.wav"
        string_val: "/content/drive/MyDrive/heartbeat artifact/00965.wav"
        string_val: "/content/drive/MyDrive/heartbeat artifact/00959.wav"
        string_val: "/content/drive/MyDrive/heartbeat artifact/00948.wav"
        string_val: "/content/drive/MyDrive/heartbeat artifact/00946.wav"
        string_val: "/content/drive/MyDrive/heartbeat artifact/00952.wav"
        string_val: "/content/drive/MyDrive/heartbeat artifact/00953.wav"
        string_val: "/content/drive/MyDrive/heartbeat artifact/00949.wav"
        string_val: "/content/drive/MyDrive/heartbeat artifact/00950.wav"
        string_val: "/content/drive/MyDrive/heartbeat artifact/00958.wav"
        string_val: "/content/drive/MyDrive/heartbeat artifact/00951.wav"
        string_val: "/content/drive/MyDrive/heartbeat artifact/00967.wav"
        string_val: "/content/drive/MyDrive/heartbeat artifact/00955.wav"
        string_val: "/content/drive/MyDrive/heartbeat artifact/001.wav"
        string_val: "/content/drive/MyDrive/heartbeat artifact/002.wav"
        string_val: "/content/drive/MyDrive/heartbeat artifact/003.wav"
        string_val: "/content/drive/MyDrive/heartbeat artifact/004.wav"
        string_val: "/content/drive/MyDrive/heartbeat artifact/005.wav"
        string_val: "/content/drive/MyDrive/heartbeat artifact/006.wav"
        string_val: "/content/drive/MyDrive/heartbeat artifact/008.wav"
        string_val: "/content/drive/MyDrive/heartbeat artifact/007.wav"
        string_val: "/content/drive/MyDrive/heartbeat artifact/009.wav"
        string_val: "/content/drive/MyDrive/heartbeat artifact/0010.wav"
        string_val: "/content/drive/MyDrive/heartbeat artifact/0011.wav"
        string_val: "/content/drive/MyDrive/heartbeat artifact/0012.wav"
        string_val: "/content/drive/MyDrive/heartbeat artifact/0013.wav"
        string_val: "/content/drive/MyDrive/heartbeat artifact/0014.wav"
        string_val: "/content/drive/MyDrive/heartbeat artifact/0015.wav"
        string_val: "/content/drive/MyDrive/heartbeat artifact/0019.wav"
        string_val: "/content/drive/MyDrive/heartbeat artifact/0026.wav"
        string_val: "/content/drive/MyDrive/heartbeat artifact/0028.wav"
        string_val: "/content/drive/MyDrive/heartbeat artifact/0021.wav"
        string_val: "/content/drive/MyDrive/heartbeat artifact/0017.wav"
        string_val: "/content/drive/MyDrive/heartbeat artifact/0022.wav"
        string_val: "/content/drive/MyDrive/heartbeat artifact/0016.wav"
        string_val: "/content/drive/MyDrive/heartbeat artifact/0030.wav"
        string_val: "/content/drive/MyDrive/heartbeat artifact/0027.wav"
        string_val: "/content/drive/MyDrive/heartbeat artifact/0023.wav"
        string_val: "/content/drive/MyDrive/heartbeat artifact/0024.wav"
        string_val: "/content/drive/MyDrive/heartbeat artifact/0025.wav"
        string_val: "/content/drive/MyDrive/heartbeat artifact/0029.wav"
        string_val: "/content/drive/MyDrive/heartbeat artifact/0020.wav"
        string_val: "/content/drive/MyDrive/heartbeat artifact/0018.wav"
        string_val: "/content/drive/MyDrive/heartbeat artifact/0041.wav"
        string_val: "/content/drive/MyDrive/heartbeat artifact/0053.wav"
        string_val: "/content/drive/MyDrive/heartbeat artifact/0047.wav"
        string_val: "/content/drive/MyDrive/heartbeat artifact/0046.wav"
        string_val: "/content/drive/MyDrive/heartbeat artifact/0033.wav"
        string_val: "/content/drive/MyDrive/heartbeat artifact/0036.wav"
        string_val: "/content/drive/MyDrive/heartbeat artifact/0045.wav"
        string_val: "/content/drive/MyDrive/heartbeat artifact/0049.wav"
        string_val: "/content/drive/MyDrive/heartbeat artifact/0039.wav"
        string_val: "/content/drive/MyDrive/heartbeat artifact/0044.wav"
        string_val: "/content/drive/MyDrive/heartbeat artifact/0034.wav"
        string_val: "/content/drive/MyDrive/heartbeat artifact/0040.wav"
        string_val: "/content/drive/MyDrive/heartbeat artifact/0050.wav"
        string_val: "/content/drive/MyDrive/heartbeat artifact/0038.wav"
        string_val: "/content/drive/MyDrive/heartbeat artifact/0042.wav"
        string_val: "/content/drive/MyDrive/heartbeat artifact/0052.wav"
        string_val: "/content/drive/MyDrive/heartbeat artifact/0051.wav"
        string_val: "/content/drive/MyDrive/heartbeat artifact/0048.wav"
        string_val: "/content/drive/MyDrive/heartbeat artifact/0043.wav"
        string_val: "/content/drive/MyDrive/heartbeat artifact/0032.wav"
        string_val: "/content/drive/MyDrive/heartbeat artifact/0031.wav"
        string_val: "/content/drive/MyDrive/heartbeat artifact/0035.wav"
        string_val: "/content/drive/MyDrive/heartbeat artifact/0037.wav"
        string_val: "/content/drive/MyDrive/heartbeat artifact/00342.wav"
        string_val: "/content/drive/MyDrive/heartbeat artifact/00334.wav"
        string_val: "/content/drive/MyDrive/heartbeat artifact/00304.wav"
        string_val: "/content/drive/MyDrive/heartbeat artifact/00358.wav"
        string_val: "/content/drive/MyDrive/heartbeat artifact/00331.wav"
        string_val: "/content/drive/MyDrive/heartbeat artifact/00305.wav"
        string_val: "/content/drive/MyDrive/heartbeat artifact/00322.wav"
        string_val: "/content/drive/MyDrive/heartbeat artifact/00327.wav"
        string_val: "/content/drive/MyDrive/heartbeat artifact/00338.wav"
        string_val: "/content/drive/MyDrive/heartbeat artifact/00362.wav"
        string_val: "/content/drive/MyDrive/heartbeat artifact/00328.wav"
        string_val: "/content/drive/MyDrive/heartbeat artifact/00312.wav"
        string_val: "/content/drive/MyDrive/heartbeat artifact/00324.wav"
        string_val: "/content/drive/MyDrive/heartbeat artifact/00310.wav"
        string_val: "/content/drive/MyDrive/heartbeat artifact/00307.wav"
        string_val: "/content/drive/MyDrive/heartbeat artifact/00339.wav"
        string_val: "/content/drive/MyDrive/heartbeat artifact/00366.wav"
        string_val: "/content/drive/MyDrive/heartbeat artifact/00309.wav"
        string_val: "/content/drive/MyDrive/heartbeat artifact/00355.wav"
        string_val: "/content/drive/MyDrive/heartbeat artifact/00361.wav"
        string_val: "/content/drive/MyDrive/heartbeat artifact/00346.wav"
        string_val: "/content/drive/MyDrive/heartbeat artifact/00359.wav"
        string_val: "/content/drive/MyDrive/heartbeat artifact/00347.wav"
        string_val: "/content/drive/MyDrive/heartbeat artifact/00349.wav"
        string_val: "/content/drive/MyDrive/heartbeat artifact/00341.wav"
        string_val: "/content/drive/MyDrive/heartbeat artifact/00311.wav"
        string_val: "/content/drive/MyDrive/heartbeat artifact/00360.wav"
        string_val: "/content/drive/MyDrive/heartbeat artifact/00315.wav"
        string_val: "/content/drive/MyDrive/heartbeat artifact/00323.wav"
        string_val: "/content/drive/MyDrive/heartbeat artifact/00335.wav"
        string_val: "/content/drive/MyDrive/heartbeat artifact/00344.wav"
        string_val: "/content/drive/MyDrive/heartbeat artifact/00318.wav"
        string_val: "/content/drive/MyDrive/heartbeat artifact/00306.wav"
        string_val: "/content/drive/MyDrive/heartbeat artifact/00340.wav"
        string_val: "/content/drive/MyDrive/heartbeat artifact/00320.wav"
        string_val: "/content/drive/MyDrive/heartbeat artifact/00367.wav"
        string_val: "/content/drive/MyDrive/heartbeat artifact/00343.wav"
        string_val: "/content/drive/MyDrive/heartbeat artifact/00308.wav"
        string_val: "/content/drive/MyDrive/heartbeat artifact/0054.wav"
        string_val: "/content/drive/MyDrive/heartbeat artifact/00333.wav"
        string_val: "/content/drive/MyDrive/heartbeat artifact/00345.wav"
        string_val: "/content/drive/MyDrive/heartbeat artifact/00352.wav"
        string_val: "/content/drive/MyDrive/heartbeat artifact/00356.wav"
        string_val: "/content/drive/MyDrive/heartbeat artifact/00365.wav"
        string_val: "/content/drive/MyDrive/heartbeat artifact/00363.wav"
        string_val: "/content/drive/MyDrive/heartbeat artifact/00329.wav"
        string_val: "/content/drive/MyDrive/heartbeat artifact/00316.wav"
        string_val: "/content/drive/MyDrive/heartbeat artifact/00303.wav"
        string_val: "/content/drive/MyDrive/heartbeat artifact/00348.wav"
        string_val: "/content/drive/MyDrive/heartbeat artifact/00357.wav"
        string_val: "/content/drive/MyDrive/heartbeat artifact/00319.wav"
        string_val: "/content/drive/MyDrive/heartbeat artifact/00350.wav"
        string_val: "/content/drive/MyDrive/heartbeat artifact/00332.wav"
        string_val: "/content/drive/MyDrive/heartbeat artifact/00351.wav"
        string_val: "/content/drive/MyDrive/heartbeat artifact/00314.wav"
        string_val: "/content/drive/MyDrive/heartbeat artifact/00353.wav"
        string_val: "/content/drive/MyDrive/heartbeat artifact/00330.wav"
        string_val: "/content/drive/MyDrive/heartbeat artifact/0055.wav"
        string_val: "/content/drive/MyDrive/heartbeat artifact/00317.wav"
        string_val: "/content/drive/MyDrive/heartbeat artifact/00321.wav"
        string_val: "/content/drive/MyDrive/heartbeat artifact/00336.wav"
        string_val: "/content/drive/MyDrive/heartbeat artifact/00325.wav"
        string_val: "/content/drive/MyDrive/heartbeat artifact/00364.wav"
        string_val: "/content/drive/MyDrive/heartbeat artifact/00313.wav"
        string_val: "/content/drive/MyDrive/heartbeat artifact/00354.wav"
        string_val: "/content/drive/MyDrive/heartbeat artifact/00337.wav"
        string_val: "/content/drive/MyDrive/heartbeat artifact/00326.wav"
        string_val: "/content/drive/MyDrive/heartbeat artifact/001241.wav"
        string_val: "/content/drive/MyDrive/heartbeat artifact/001431.wav"
        string_val: "/content/drive/MyDrive/heartbeat artifact/001311.wav"
        string_val: "/content/drive/MyDrive/heartbeat artifact/001229.wav"
        string_val: "/content/drive/MyDrive/heartbeat artifact/001275.wav"
        string_val: "/content/drive/MyDrive/heartbeat artifact/001246.wav"
        string_val: "/content/drive/MyDrive/heartbeat artifact/001429.wav"
        string_val: "/content/drive/MyDrive/heartbeat artifact/001227.wav"
        string_val: "/content/drive/MyDrive/heartbeat artifact/001231.wav"
        string_val: "/content/drive/MyDrive/heartbeat artifact/001314.wav"
        string_val: "/content/drive/MyDrive/heartbeat artifact/001434.wav"
        string_val: "/content/drive/MyDrive/heartbeat artifact/001263.wav"
        string_val: "/content/drive/MyDrive/heartbeat artifact/001340.wav"
        string_val: "/content/drive/MyDrive/heartbeat artifact/001280.wav"
        string_val: "/content/drive/MyDrive/heartbeat artifact/001316.wav"
        string_val: "/content/drive/MyDrive/heartbeat artifact/001326.wav"
        string_val: "/content/drive/MyDrive/heartbeat artifact/001334.wav"
        string_val: "/content/drive/MyDrive/heartbeat artifact/001266.wav"
        string_val: "/content/drive/MyDrive/heartbeat artifact/001287.wav"
        string_val: "/content/drive/MyDrive/heartbeat artifact/001435.wav"
        string_val: "/content/drive/MyDrive/heartbeat artifact/001298.wav"
        string_val: "/content/drive/MyDrive/heartbeat artifact/001320.wav"
        string_val: "/content/drive/MyDrive/heartbeat artifact/001276.wav"
        string_val: "/content/drive/MyDrive/heartbeat artifact/001233.wav"
        string_val: "/content/drive/MyDrive/heartbeat artifact/001345.wav"
        string_val: "/content/drive/MyDrive/heartbeat artifact/001291.wav"
        string_val: "/content/drive/MyDrive/heartbeat artifact/001347.wav"
        string_val: "/content/drive/MyDrive/heartbeat artifact/001238.wav"
        string_val: "/content/drive/MyDrive/heartbeat artifact/001240.wav"
        string_val: "/content/drive/MyDrive/heartbeat artifact/001303.wav"
        string_val: "/content/drive/MyDrive/heartbeat artifact/001255.wav"
        string_val: "/content/drive/MyDrive/heartbeat artifact/001273.wav"
        string_val: "/content/drive/MyDrive/heartbeat artifact/001293.wav"
        string_val: "/content/drive/MyDrive/heartbeat artifact/001332.wav"
        string_val: "/content/drive/MyDrive/heartbeat artifact/001428.wav"
        string_val: "/content/drive/MyDrive/heartbeat artifact/001234.wav"
        string_val: "/content/drive/MyDrive/heartbeat artifact/001349.wav"
        string_val: "/content/drive/MyDrive/heartbeat artifact/001237.wav"
        string_val: "/content/drive/MyDrive/heartbeat artifact/001253.wav"
        string_val: "/content/drive/MyDrive/heartbeat artifact/001252.wav"
        string_val: "/content/drive/MyDrive/heartbeat artifact/001245.wav"
        string_val: "/content/drive/MyDrive/heartbeat artifact/001250.wav"
        string_val: "/content/drive/MyDrive/heartbeat artifact/001342.wav"
        string_val: "/content/drive/MyDrive/heartbeat artifact/001282.wav"
        string_val: "/content/drive/MyDrive/heartbeat artifact/001268.wav"
        string_val: "/content/drive/MyDrive/heartbeat artifact/001306.wav"
        string_val: "/content/drive/MyDrive/heartbeat artifact/001313.wav"
        string_val: "/content/drive/MyDrive/heartbeat artifact/001248.wav"
        string_val: "/content/drive/MyDrive/heartbeat artifact/001296.wav"
        string_val: "/content/drive/MyDrive/heartbeat artifact/001330.wav"
        string_val: "/content/drive/MyDrive/heartbeat artifact/001317.wav"
        string_val: "/content/drive/MyDrive/heartbeat artifact/001337.wav"
        string_val: "/content/drive/MyDrive/heartbeat artifact/001321.wav"
        string_val: "/content/drive/MyDrive/heartbeat artifact/001297.wav"
        string_val: "/content/drive/MyDrive/heartbeat artifact/001339.wav"
        string_val: "/content/drive/MyDrive/heartbeat artifact/001327.wav"
        string_val: "/content/drive/MyDrive/heartbeat artifact/001289.wav"
        string_val: "/content/drive/MyDrive/heartbeat artifact/001294.wav"
        string_val: "/content/drive/MyDrive/heartbeat artifact/001232.wav"
        string_val: "/content/drive/MyDrive/heartbeat artifact/001309.wav"
        string_val: "/content/drive/MyDrive/heartbeat artifact/001272.wav"
        string_val: "/content/drive/MyDrive/heartbeat artifact/001259.wav"
        string_val: "/content/drive/MyDrive/heartbeat artifact/001343.wav"
        string_val: "/content/drive/MyDrive/heartbeat artifact/001432.wav"
        string_val: "/content/drive/MyDrive/heartbeat artifact/001427.wav"
        string_val: "/content/drive/MyDrive/heartbeat artifact/001262.wav"
        string_val: "/content/drive/MyDrive/heartbeat artifact/001239.wav"
        string_val: "/content/drive/MyDrive/heartbeat artifact/001267.wav"
        string_val: "/content/drive/MyDrive/heartbeat artifact/001325.wav"
        string_val: "/content/drive/MyDrive/heartbeat artifact/001288.wav"
        string_val: "/content/drive/MyDrive/heartbeat artifact/001304.wav"
        string_val: "/content/drive/MyDrive/heartbeat artifact/001323.wav"
        string_val: "/content/drive/MyDrive/heartbeat artifact/001274.wav"
        string_val: "/content/drive/MyDrive/heartbeat artifact/001244.wav"
        string_val: "/content/drive/MyDrive/heartbeat artifact/001285.wav"
        string_val: "/content/drive/MyDrive/heartbeat artifact/001310.wav"
        string_val: "/content/drive/MyDrive/heartbeat artifact/001278.wav"
        string_val: "/content/drive/MyDrive/heartbeat artifact/001264.wav"
        string_val: "/content/drive/MyDrive/heartbeat artifact/001228.wav"
        string_val: "/content/drive/MyDrive/heartbeat artifact/001257.wav"
        string_val: "/content/drive/MyDrive/heartbeat artifact/001283.wav"
        string_val: "/content/drive/MyDrive/heartbeat artifact/001346.wav"
        string_val: "/content/drive/MyDrive/heartbeat artifact/001348.wav"
        string_val: "/content/drive/MyDrive/heartbeat artifact/001235.wav"
        string_val: "/content/drive/MyDrive/heartbeat artifact/001341.wav"
        string_val: "/content/drive/MyDrive/heartbeat artifact/001279.wav"
        string_val: "/content/drive/MyDrive/heartbeat artifact/001328.wav"
        string_val: "/content/drive/MyDrive/heartbeat artifact/001305.wav"
        string_val: "/content/drive/MyDrive/heartbeat artifact/001322.wav"
        string_val: "/content/drive/MyDrive/heartbeat artifact/001324.wav"
        string_val: "/content/drive/MyDrive/heartbeat artifact/001295.wav"
        string_val: "/content/drive/MyDrive/heartbeat artifact/001290.wav"
        string_val: "/content/drive/MyDrive/heartbeat artifact/001292.wav"
        string_val: "/content/drive/MyDrive/heartbeat artifact/001350.wav"
        string_val: "/content/drive/MyDrive/heartbeat artifact/001286.wav"
        string_val: "/content/drive/MyDrive/heartbeat artifact/001254.wav"
        string_val: "/content/drive/MyDrive/heartbeat artifact/001333.wav"
        string_val: "/content/drive/MyDrive/heartbeat artifact/001344.wav"
        string_val: "/content/drive/MyDrive/heartbeat artifact/001302.wav"
        string_val: "/content/drive/MyDrive/heartbeat artifact/001433.wav"
        string_val: "/content/drive/MyDrive/heartbeat artifact/001300.wav"
        string_val: "/content/drive/MyDrive/heartbeat artifact/001277.wav"
        string_val: "/content/drive/MyDrive/heartbeat artifact/001299.wav"
        string_val: "/content/drive/MyDrive/heartbeat artifact/001301.wav"
        string_val: "/content/drive/MyDrive/heartbeat artifact/001249.wav"
        string_val: "/content/drive/MyDrive/heartbeat artifact/001315.wav"
        string_val: "/content/drive/MyDrive/heartbeat artifact/001247.wav"
        string_val: "/content/drive/MyDrive/heartbeat artifact/001335.wav"
        string_val: "/content/drive/MyDrive/heartbeat artifact/001236.wav"
        string_val: "/content/drive/MyDrive/heartbeat artifact/001307.wav"
        string_val: "/content/drive/MyDrive/heartbeat artifact/001269.wav"
        string_val: "/content/drive/MyDrive/heartbeat artifact/001318.wav"
        string_val: "/content/drive/MyDrive/heartbeat artifact/001331.wav"
        string_val: "/content/drive/MyDrive/heartbeat artifact/001270.wav"
        string_val: "/content/drive/MyDrive/heartbeat artifact/001284.wav"
        string_val: "/content/drive/MyDrive/heartbeat artifact/001312.wav"
        string_val: "/content/drive/MyDrive/heartbeat artifact/001319.wav"
        string_val: "/content/drive/MyDrive/heartbeat artifact/001261.wav"
        string_val: "/content/drive/MyDrive/heartbeat artifact/001271.wav"
        string_val: "/content/drive/MyDrive/heartbeat artifact/001256.wav"
        string_val: "/content/drive/MyDrive/heartbeat artifact/001281.wav"
        string_val: "/content/drive/MyDrive/heartbeat artifact/001336.wav"
        string_val: "/content/drive/MyDrive/heartbeat artifact/001258.wav"
        string_val: "/content/drive/MyDrive/heartbeat artifact/001260.wav"
        string_val: "/content/drive/MyDrive/heartbeat artifact/001308.wav"
        string_val: "/content/drive/MyDrive/heartbeat artifact/001329.wav"
        string_val: "/content/drive/MyDrive/heartbeat artifact/001430.wav"
        string_val: "/content/drive/MyDrive/heartbeat artifact/001230.wav"
        string_val: "/content/drive/MyDrive/heartbeat artifact/001243.wav"
        string_val: "/content/drive/MyDrive/heartbeat artifact/001265.wav"
        string_val: "/content/drive/MyDrive/heartbeat artifact/001338.wav"
        string_val: "/content/drive/MyDrive/heartbeat artifact/001251.wav"
        string_val: "/content/drive/MyDrive/heartbeat artifact/001242.wav"
        string_val: "/content/drive/MyDrive/heartbeat artifact/001355.wav"
        string_val: "/content/drive/MyDrive/heartbeat artifact/001384.wav"
        string_val: "/content/drive/MyDrive/heartbeat artifact/001443.wav"
        string_val: "/content/drive/MyDrive/heartbeat artifact/001453.wav"
        string_val: "/content/drive/MyDrive/heartbeat artifact/001478.wav"
        string_val: "/content/drive/MyDrive/heartbeat artifact/001375.wav"
        string_val: "/content/drive/MyDrive/heartbeat artifact/001373.wav"
        string_val: "/content/drive/MyDrive/heartbeat artifact/001379.wav"
        string_val: "/content/drive/MyDrive/heartbeat artifact/001462.wav"
        string_val: "/content/drive/MyDrive/heartbeat artifact/001421.wav"
        string_val: "/content/drive/MyDrive/heartbeat artifact/001363.wav"
        string_val: "/content/drive/MyDrive/heartbeat artifact/001459.wav"
        string_val: "/content/drive/MyDrive/heartbeat artifact/001417.wav"
        string_val: "/content/drive/MyDrive/heartbeat artifact/001405.wav"
        string_val: "/content/drive/MyDrive/heartbeat artifact/001445.wav"
        string_val: "/content/drive/MyDrive/heartbeat artifact/001468.wav"
        string_val: "/content/drive/MyDrive/heartbeat artifact/001380.wav"
        string_val: "/content/drive/MyDrive/heartbeat artifact/001365.wav"
        string_val: "/content/drive/MyDrive/heartbeat artifact/001418.wav"
        string_val: "/content/drive/MyDrive/heartbeat artifact/001466.wav"
        string_val: "/content/drive/MyDrive/heartbeat artifact/001392.wav"
        string_val: "/content/drive/MyDrive/heartbeat artifact/001451.wav"
        string_val: "/content/drive/MyDrive/heartbeat artifact/001467.wav"
        string_val: "/content/drive/MyDrive/heartbeat artifact/001354.wav"
        string_val: "/content/drive/MyDrive/heartbeat artifact/001419.wav"
        string_val: "/content/drive/MyDrive/heartbeat artifact/001364.wav"
        string_val: "/content/drive/MyDrive/heartbeat artifact/001391.wav"
        string_val: "/content/drive/MyDrive/heartbeat artifact/001371.wav"
        string_val: "/content/drive/MyDrive/heartbeat artifact/001352.wav"
        string_val: "/content/drive/MyDrive/heartbeat artifact/001475.wav"
        string_val: "/content/drive/MyDrive/heartbeat artifact/001444.wav"
        string_val: "/content/drive/MyDrive/heartbeat artifact/001409.wav"
        string_val: "/content/drive/MyDrive/heartbeat artifact/001361.wav"
        string_val: "/content/drive/MyDrive/heartbeat artifact/001360.wav"
        string_val: "/content/drive/MyDrive/heartbeat artifact/001359.wav"
        string_val: "/content/drive/MyDrive/heartbeat artifact/001385.wav"
        string_val: "/content/drive/MyDrive/heartbeat artifact/001474.wav"
        string_val: "/content/drive/MyDrive/heartbeat artifact/001448.wav"
        string_val: "/content/drive/MyDrive/heartbeat artifact/001387.wav"
        string_val: "/content/drive/MyDrive/heartbeat artifact/001473.wav"
        string_val: "/content/drive/MyDrive/heartbeat artifact/001441.wav"
        string_val: "/content/drive/MyDrive/heartbeat artifact/001412.wav"
        string_val: "/content/drive/MyDrive/heartbeat artifact/001394.wav"
        string_val: "/content/drive/MyDrive/heartbeat artifact/001464.wav"
        string_val: "/content/drive/MyDrive/heartbeat artifact/001442.wav"
        string_val: "/content/drive/MyDrive/heartbeat artifact/001368.wav"
        string_val: "/content/drive/MyDrive/heartbeat artifact/001470.wav"
        string_val: "/content/drive/MyDrive/heartbeat artifact/001472.wav"
        string_val: "/content/drive/MyDrive/heartbeat artifact/001357.wav"
        string_val: "/content/drive/MyDrive/heartbeat artifact/001353.wav"
        string_val: "/content/drive/MyDrive/heartbeat artifact/001436.wav"
        string_val: "/content/drive/MyDrive/heartbeat artifact/001477.wav"
        string_val: "/content/drive/MyDrive/heartbeat artifact/001461.wav"
        string_val: "/content/drive/MyDrive/heartbeat artifact/001438.wav"
        string_val: "/content/drive/MyDrive/heartbeat artifact/001383.wav"
        string_val: "/content/drive/MyDrive/heartbeat artifact/001425.wav"
        string_val: "/content/drive/MyDrive/heartbeat artifact/001422.wav"
        string_val: "/content/drive/MyDrive/heartbeat artifact/001400.wav"
        string_val: "/content/drive/MyDrive/heartbeat artifact/001389.wav"
        string_val: "/content/drive/MyDrive/heartbeat artifact/001396.wav"
        string_val: "/content/drive/MyDrive/heartbeat artifact/001456.wav"
        string_val: "/content/drive/MyDrive/heartbeat artifact/001455.wav"
        string_val: "/content/drive/MyDrive/heartbeat artifact/001382.wav"
        string_val: "/content/drive/MyDrive/heartbeat artifact/001449.wav"
        string_val: "/content/drive/MyDrive/heartbeat artifact/001399.wav"
        string_val: "/content/drive/MyDrive/heartbeat artifact/001406.wav"
        string_val: "/content/drive/MyDrive/heartbeat artifact/001377.wav"
        string_val: "/content/drive/MyDrive/heartbeat artifact/001393.wav"
        string_val: "/content/drive/MyDrive/heartbeat artifact/001356.wav"
        string_val: "/content/drive/MyDrive/heartbeat artifact/001369.wav"
        string_val: "/content/drive/MyDrive/heartbeat artifact/001416.wav"
        string_val: "/content/drive/MyDrive/heartbeat artifact/001471.wav"
        string_val: "/content/drive/MyDrive/heartbeat artifact/001403.wav"
        string_val: "/content/drive/MyDrive/heartbeat artifact/001408.wav"
        string_val: "/content/drive/MyDrive/heartbeat artifact/001411.wav"
        string_val: "/content/drive/MyDrive/heartbeat artifact/001374.wav"
        string_val: "/content/drive/MyDrive/heartbeat artifact/001402.wav"
        string_val: "/content/drive/MyDrive/heartbeat artifact/001358.wav"
        string_val: "/content/drive/MyDrive/heartbeat artifact/001446.wav"
        string_val: "/content/drive/MyDrive/heartbeat artifact/001413.wav"
        string_val: "/content/drive/MyDrive/heartbeat artifact/001372.wav"
        string_val: "/content/drive/MyDrive/heartbeat artifact/001440.wav"
        string_val: "/content/drive/MyDrive/heartbeat artifact/001439.wav"
        string_val: "/content/drive/MyDrive/heartbeat artifact/001414.wav"
        string_val: "/content/drive/MyDrive/heartbeat artifact/001381.wav"
        string_val: "/content/drive/MyDrive/heartbeat artifact/001367.wav"
        string_val: "/content/drive/MyDrive/heartbeat artifact/001351.wav"
        string_val: "/content/drive/MyDrive/heartbeat artifact/001410.wav"
        string_val: "/content/drive/MyDrive/heartbeat artifact/001370.wav"
        string_val: "/content/drive/MyDrive/heartbeat artifact/001415.wav"
        string_val: "/content/drive/MyDrive/heartbeat artifact/001458.wav"
        string_val: "/content/drive/MyDrive/heartbeat artifact/001460.wav"
        string_val: "/content/drive/MyDrive/heartbeat artifact/001465.wav"
        string_val: "/content/drive/MyDrive/heartbeat artifact/001454.wav"
        string_val: "/content/drive/MyDrive/heartbeat artifact/001390.wav"
        string_val: "/content/drive/MyDrive/heartbeat artifact/001404.wav"
        string_val: "/content/drive/MyDrive/heartbeat artifact/001423.wav"
        string_val: "/content/drive/MyDrive/heartbeat artifact/001476.wav"
        string_val: "/content/drive/MyDrive/heartbeat artifact/001452.wav"
        string_val: "/content/drive/MyDrive/heartbeat artifact/001397.wav"
        string_val: "/content/drive/MyDrive/heartbeat artifact/001426.wav"
        string_val: "/content/drive/MyDrive/heartbeat artifact/001407.wav"
        string_val: "/content/drive/MyDrive/heartbeat artifact/001388.wav"
        string_val: "/content/drive/MyDrive/heartbeat artifact/001366.wav"
        string_val: "/content/drive/MyDrive/heartbeat artifact/001420.wav"
        string_val: "/content/drive/MyDrive/heartbeat artifact/001401.wav"
        string_val: "/content/drive/MyDrive/heartbeat artifact/001386.wav"
        string_val: "/content/drive/MyDrive/heartbeat artifact/001437.wav"
        string_val: "/content/drive/MyDrive/heartbeat artifact/001424.wav"
        string_val: "/content/drive/MyDrive/heartbeat artifact/001376.wav"
        string_val: "/content/drive/MyDrive/heartbeat artifact/001395.wav"
        string_val: "/content/drive/MyDrive/heartbeat artifact/001378.wav"
        string_val: "/content/drive/MyDrive/heartbeat artifact/001362.wav"
        string_val: "/content/drive/MyDrive/heartbeat artifact/001447.wav"
        string_val: "/content/drive/MyDrive/heartbeat artifact/001469.wav"
        string_val: "/content/drive/MyDrive/heartbeat artifact/001463.wav"
        string_val: "/content/drive/MyDrive/heartbeat artifact/001457.wav"
        string_val: "/content/drive/MyDrive/heartbeat artifact/001450.wav"
        string_val: "/content/drive/MyDrive/heartbeat artifact/001398.wav"
        string_val: "/content/drive/MyDrive/heartbeat artifact/001501.wav"
        string_val: "/content/drive/MyDrive/heartbeat artifact/001517.wav"
        string_val: "/content/drive/MyDrive/heartbeat artifact/001498.wav"
        string_val: "/content/drive/MyDrive/heartbeat artifact/001521.wav"
        string_val: "/content/drive/MyDrive/heartbeat artifact/001557.wav"
        string_val: "/content/drive/MyDrive/heartbeat artifact/001543.wav"
        string_val: "/content/drive/MyDrive/heartbeat artifact/0064.wav"
        string_val: "/content/drive/MyDrive/heartbeat artifact/001513.wav"
        string_val: "/content/drive/MyDrive/heartbeat artifact/001515.wav"
        string_val: "/content/drive/MyDrive/heartbeat artifact/001552.wav"
        string_val: "/content/drive/MyDrive/heartbeat artifact/001564.wav"
        string_val: "/content/drive/MyDrive/heartbeat artifact/001530.wav"
        string_val: "/content/drive/MyDrive/heartbeat artifact/001554.wav"
        string_val: "/content/drive/MyDrive/heartbeat artifact/001575.wav"
        string_val: "/content/drive/MyDrive/heartbeat artifact/001497.wav"
        string_val: "/content/drive/MyDrive/heartbeat artifact/0067.wav"
        string_val: "/content/drive/MyDrive/heartbeat artifact/001539.wav"
        string_val: "/content/drive/MyDrive/heartbeat artifact/001529.wav"
        string_val: "/content/drive/MyDrive/heartbeat artifact/001566.wav"
        string_val: "/content/drive/MyDrive/heartbeat artifact/0062.wav"
        string_val: "/content/drive/MyDrive/heartbeat artifact/001500.wav"
        string_val: "/content/drive/MyDrive/heartbeat artifact/001574.wav"
        string_val: "/content/drive/MyDrive/heartbeat artifact/0060.wav"
        string_val: "/content/drive/MyDrive/heartbeat artifact/001493.wav"
        string_val: "/content/drive/MyDrive/heartbeat artifact/001553.wav"
        string_val: "/content/drive/MyDrive/heartbeat artifact/001567.wav"
        string_val: "/content/drive/MyDrive/heartbeat artifact/001545.wav"
        string_val: "/content/drive/MyDrive/heartbeat artifact/001533.wav"
        string_val: "/content/drive/MyDrive/heartbeat artifact/001489.wav"
        string_val: "/content/drive/MyDrive/heartbeat artifact/001524.wav"
        string_val: "/content/drive/MyDrive/heartbeat artifact/001525.wav"
        string_val: "/content/drive/MyDrive/heartbeat artifact/0063.wav"
        string_val: "/content/drive/MyDrive/heartbeat artifact/001499.wav"
        string_val: "/content/drive/MyDrive/heartbeat artifact/001494.wav"
        string_val: "/content/drive/MyDrive/heartbeat artifact/001490.wav"
        string_val: "/content/drive/MyDrive/heartbeat artifact/001576.wav"
        string_val: "/content/drive/MyDrive/heartbeat artifact/001531.wav"
        string_val: "/content/drive/MyDrive/heartbeat artifact/001561.wav"
        string_val: "/content/drive/MyDrive/heartbeat artifact/0070.wav"
        string_val: "/content/drive/MyDrive/heartbeat artifact/001505.wav"
        string_val: "/content/drive/MyDrive/heartbeat artifact/001572.wav"
        string_val: "/content/drive/MyDrive/heartbeat artifact/001565.wav"
        string_val: "/content/drive/MyDrive/heartbeat artifact/001535.wav"
        string_val: "/content/drive/MyDrive/heartbeat artifact/0059.wav"
        string_val: "/content/drive/MyDrive/heartbeat artifact/001563.wav"
        string_val: "/content/drive/MyDrive/heartbeat artifact/001544.wav"
        string_val: "/content/drive/MyDrive/heartbeat artifact/001488.wav"
        string_val: "/content/drive/MyDrive/heartbeat artifact/001492.wav"
        string_val: "/content/drive/MyDrive/heartbeat artifact/0071.wav"
        string_val: "/content/drive/MyDrive/heartbeat artifact/001486.wav"
        string_val: "/content/drive/MyDrive/heartbeat artifact/001527.wav"
        string_val: "/content/drive/MyDrive/heartbeat artifact/001523.wav"
        string_val: "/content/drive/MyDrive/heartbeat artifact/001562.wav"
        string_val: "/content/drive/MyDrive/heartbeat artifact/001558.wav"
        string_val: "/content/drive/MyDrive/heartbeat artifact/001479.wav"
        string_val: "/content/drive/MyDrive/heartbeat artifact/001541.wav"
        string_val: "/content/drive/MyDrive/heartbeat artifact/001548.wav"
        string_val: "/content/drive/MyDrive/heartbeat artifact/001568.wav"
        string_val: "/content/drive/MyDrive/heartbeat artifact/0068.wav"
        string_val: "/content/drive/MyDrive/heartbeat artifact/001560.wav"
        string_val: "/content/drive/MyDrive/heartbeat artifact/001573.wav"
        string_val: "/content/drive/MyDrive/heartbeat artifact/0069.wav"
        string_val: "/content/drive/MyDrive/heartbeat artifact/001519.wav"
        string_val: "/content/drive/MyDrive/heartbeat artifact/0061.wav"
        string_val: "/content/drive/MyDrive/heartbeat artifact/001503.wav"
        string_val: "/content/drive/MyDrive/heartbeat artifact/001509.wav"
        string_val: "/content/drive/MyDrive/heartbeat artifact/001504.wav"
        string_val: "/content/drive/MyDrive/heartbeat artifact/001522.wav"
        string_val: "/content/drive/MyDrive/heartbeat artifact/001577.wav"
        string_val: "/content/drive/MyDrive/heartbeat artifact/001532.wav"
        string_val: "/content/drive/MyDrive/heartbeat artifact/001555.wav"
        string_val: "/content/drive/MyDrive/heartbeat artifact/001537.wav"
        string_val: "/content/drive/MyDrive/heartbeat artifact/0072.wav"
        string_val: "/content/drive/MyDrive/heartbeat artifact/001534.wav"
        string_val: "/content/drive/MyDrive/heartbeat artifact/001542.wav"
        string_val: "/content/drive/MyDrive/heartbeat artifact/001491.wav"
        string_val: "/content/drive/MyDrive/heartbeat artifact/001570.wav"
        string_val: "/content/drive/MyDrive/heartbeat artifact/0065.wav"
        string_val: "/content/drive/MyDrive/heartbeat artifact/001480.wav"
        string_val: "/content/drive/MyDrive/heartbeat artifact/001551.wav"
        string_val: "/content/drive/MyDrive/heartbeat artifact/001547.wav"
        string_val: "/content/drive/MyDrive/heartbeat artifact/0066.wav"
        string_val: "/content/drive/MyDrive/heartbeat artifact/001510.wav"
        string_val: "/content/drive/MyDrive/heartbeat artifact/001540.wav"
        string_val: "/content/drive/MyDrive/heartbeat artifact/001511.wav"
        string_val: "/content/drive/MyDrive/heartbeat artifact/001538.wav"
        string_val: "/content/drive/MyDrive/heartbeat artifact/001512.wav"
        string_val: "/content/drive/MyDrive/heartbeat artifact/001502.wav"
        string_val: "/content/drive/MyDrive/heartbeat artifact/001546.wav"
        string_val: "/content/drive/MyDrive/heartbeat artifact/001518.wav"
        string_val: "/content/drive/MyDrive/heartbeat artifact/001571.wav"
        string_val: "/content/drive/MyDrive/heartbeat artifact/001520.wav"
        string_val: "/content/drive/MyDrive/heartbeat artifact/001550.wav"
        string_val: "/content/drive/MyDrive/heartbeat artifact/001485.wav"
        string_val: "/content/drive/MyDrive/heartbeat artifact/001549.wav"
        string_val: "/content/drive/MyDrive/heartbeat artifact/001507.wav"
        string_val: "/content/drive/MyDrive/heartbeat artifact/001496.wav"
        string_val: "/content/drive/MyDrive/heartbeat artifact/001481.wav"
        string_val: "/content/drive/MyDrive/heartbeat artifact/001516.wav"
        string_val: "/content/drive/MyDrive/heartbeat artifact/001556.wav"
        string_val: "/content/drive/MyDrive/heartbeat artifact/001495.wav"
        string_val: "/content/drive/MyDrive/heartbeat artifact/001526.wav"
        string_val: "/content/drive/MyDrive/heartbeat artifact/001506.wav"
        string_val: "/content/drive/MyDrive/heartbeat artifact/001514.wav"
        string_val: "/content/drive/MyDrive/heartbeat artifact/0058.wav"
        string_val: "/content/drive/MyDrive/heartbeat artifact/001569.wav"
        string_val: "/content/drive/MyDrive/heartbeat artifact/001559.wav"
        string_val: "/content/drive/MyDrive/heartbeat artifact/001484.wav"
        string_val: "/content/drive/MyDrive/heartbeat artifact/001528.wav"
        string_val: "/content/drive/MyDrive/heartbeat artifact/001482.wav"
        string_val: "/content/drive/MyDrive/heartbeat artifact/001508.wav"
        string_val: "/content/drive/MyDrive/heartbeat artifact/001483.wav"
        string_val: "/content/drive/MyDrive/heartbeat artifact/001487.wav"
        string_val: "/content/drive/MyDrive/heartbeat artifact/001536.wav"
        string_val: "/content/drive/MyDrive/heartbeat artifact/0089.wav"
        string_val: "/content/drive/MyDrive/heartbeat artifact/0094.wav"
        string_val: "/content/drive/MyDrive/heartbeat artifact/0091.wav"
        string_val: "/content/drive/MyDrive/heartbeat artifact/0093.wav"
        string_val: "/content/drive/MyDrive/heartbeat artifact/0080.wav"
        string_val: "/content/drive/MyDrive/heartbeat artifact/0074.wav"
        string_val: "/content/drive/MyDrive/heartbeat artifact/0075.wav"
        string_val: "/content/drive/MyDrive/heartbeat artifact/0087.wav"
        string_val: "/content/drive/MyDrive/heartbeat artifact/0090.wav"
        string_val: "/content/drive/MyDrive/heartbeat artifact/0086.wav"
        string_val: "/content/drive/MyDrive/heartbeat artifact/0084.wav"
        string_val: "/content/drive/MyDrive/heartbeat artifact/0083.wav"
        string_val: "/content/drive/MyDrive/heartbeat artifact/0088.wav"
        string_val: "/content/drive/MyDrive/heartbeat artifact/0081.wav"
        string_val: "/content/drive/MyDrive/heartbeat artifact/0082.wav"
        string_val: "/content/drive/MyDrive/heartbeat artifact/0056.wav"
        string_val: "/content/drive/MyDrive/heartbeat artifact/0092.wav"
        string_val: "/content/drive/MyDrive/heartbeat artifact/0085.wav"
        string_val: "/content/drive/MyDrive/heartbeat artifact/0096.wav"
        string_val: "/content/drive/MyDrive/heartbeat artifact/0073.wav"
        string_val: "/content/drive/MyDrive/heartbeat artifact/0079.wav"
        string_val: "/content/drive/MyDrive/heartbeat artifact/0057.wav"
        string_val: "/content/drive/MyDrive/heartbeat artifact/0076.wav"
        string_val: "/content/drive/MyDrive/heartbeat artifact/0095.wav"
        string_val: "/content/drive/MyDrive/heartbeat artifact/0077.wav"
        string_val: "/content/drive/MyDrive/heartbeat artifact/0078.wav"
        string_val: "/content/drive/MyDrive/heartbeat artifact/00238.wav"
        string_val: "/content/drive/MyDrive/heartbeat artifact/00146.wav"
        string_val: "/content/drive/MyDrive/heartbeat artifact/00258.wav"
        string_val: "/content/drive/MyDrive/heartbeat artifact/00103.wav"
        string_val: "/content/drive/MyDrive/heartbeat artifact/00297.wav"
        string_val: "/content/drive/MyDrive/heartbeat artifact/00117.wav"
        string_val: "/content/drive/MyDrive/heartbeat artifact/00137.wav"
        string_val: "/content/drive/MyDrive/heartbeat artifact/00232.wav"
        string_val: "/content/drive/MyDrive/heartbeat artifact/00252.wav"
        string_val: "/content/drive/MyDrive/heartbeat artifact/00295.wav"
        string_val: "/content/drive/MyDrive/heartbeat artifact/00294.wav"
        string_val: "/content/drive/MyDrive/heartbeat artifact/00248.wav"
        string_val: "/content/drive/MyDrive/heartbeat artifact/00253.wav"
        string_val: "/content/drive/MyDrive/heartbeat artifact/00106.wav"
        string_val: "/content/drive/MyDrive/heartbeat artifact/00184.wav"
        string_val: "/content/drive/MyDrive/heartbeat artifact/00208.wav"
        string_val: "/content/drive/MyDrive/heartbeat artifact/00120.wav"
        string_val: "/content/drive/MyDrive/heartbeat artifact/00147.wav"
        string_val: "/content/drive/MyDrive/heartbeat artifact/00276.wav"
        string_val: "/content/drive/MyDrive/heartbeat artifact/00129.wav"
        string_val: "/content/drive/MyDrive/heartbeat artifact/00104.wav"
        string_val: "/content/drive/MyDrive/heartbeat artifact/00130.wav"
        string_val: "/content/drive/MyDrive/heartbeat artifact/00102.wav"
        string_val: "/content/drive/MyDrive/heartbeat artifact/00277.wav"
        string_val: "/content/drive/MyDrive/heartbeat artifact/00263.wav"
        string_val: "/content/drive/MyDrive/heartbeat artifact/00292.wav"
        string_val: "/content/drive/MyDrive/heartbeat artifact/00209.wav"
        string_val: "/content/drive/MyDrive/heartbeat artifact/00205.wav"
        string_val: "/content/drive/MyDrive/heartbeat artifact/00194.wav"
        string_val: "/content/drive/MyDrive/heartbeat artifact/00233.wav"
        string_val: "/content/drive/MyDrive/heartbeat artifact/00125.wav"
        string_val: "/content/drive/MyDrive/heartbeat artifact/00216.wav"
        string_val: "/content/drive/MyDrive/heartbeat artifact/00197.wav"
        string_val: "/content/drive/MyDrive/heartbeat artifact/00215.wav"
        string_val: "/content/drive/MyDrive/heartbeat artifact/00290.wav"
        string_val: "/content/drive/MyDrive/heartbeat artifact/00264.wav"
        string_val: "/content/drive/MyDrive/heartbeat artifact/00200.wav"
        string_val: "/content/drive/MyDrive/heartbeat artifact/00222.wav"
        string_val: "/content/drive/MyDrive/heartbeat artifact/00242.wav"
        string_val: "/content/drive/MyDrive/heartbeat artifact/00302.wav"
        string_val: "/content/drive/MyDrive/heartbeat artifact/00171.wav"
        string_val: "/content/drive/MyDrive/heartbeat artifact/00271.wav"
        string_val: "/content/drive/MyDrive/heartbeat artifact/00107.wav"
        string_val: "/content/drive/MyDrive/heartbeat artifact/00159.wav"
        string_val: "/content/drive/MyDrive/heartbeat artifact/00228.wav"
        string_val: "/content/drive/MyDrive/heartbeat artifact/00170.wav"
        string_val: "/content/drive/MyDrive/heartbeat artifact/00289.wav"
        string_val: "/content/drive/MyDrive/heartbeat artifact/00249.wav"
        string_val: "/content/drive/MyDrive/heartbeat artifact/00111.wav"
        string_val: "/content/drive/MyDrive/heartbeat artifact/00150.wav"
        string_val: "/content/drive/MyDrive/heartbeat artifact/00185.wav"
        string_val: "/content/drive/MyDrive/heartbeat artifact/00267.wav"
        string_val: "/content/drive/MyDrive/heartbeat artifact/00254.wav"
        string_val: "/content/drive/MyDrive/heartbeat artifact/00123.wav"
        string_val: "/content/drive/MyDrive/heartbeat artifact/00234.wav"
        string_val: "/content/drive/MyDrive/heartbeat artifact/00285.wav"
        string_val: "/content/drive/MyDrive/heartbeat artifact/00250.wav"
        string_val: "/content/drive/MyDrive/heartbeat artifact/00225.wav"
        string_val: "/content/drive/MyDrive/heartbeat artifact/00274.wav"
        string_val: "/content/drive/MyDrive/heartbeat artifact/00133.wav"
        string_val: "/content/drive/MyDrive/heartbeat artifact/00193.wav"
        string_val: "/content/drive/MyDrive/heartbeat artifact/00190.wav"
        string_val: "/content/drive/MyDrive/heartbeat artifact/00288.wav"
        string_val: "/content/drive/MyDrive/heartbeat artifact/00259.wav"
        string_val: "/content/drive/MyDrive/heartbeat artifact/00204.wav"
        string_val: "/content/drive/MyDrive/heartbeat artifact/00283.wav"
      }
    }
  }
}
node {
  name: "loader/TensorSliceDataset"
  op: "TensorSliceDataset"
  input: "loader/normalize_element/component_0"
  attr {
    key: "Toutput_types"
    value {
      list {
        type: DT_STRING
      }
    }
  }
  attr {
    key: "_output_shapes"
    value {
      list {
        shape {
        }
      }
    }
  }
  attr {
    key: "is_files"
    value {
      b: false
    }
  }
  attr {
    key: "metadata"
    value {
      s: ""
    }
  }
  attr {
    key: "output_shapes"
    value {
      list {
        shape {
        }
      }
    }
  }
  experimental_type {
    type_id: TFT_PRODUCT
    args {
      type_id: TFT_DATASET
      args {
        type_id: TFT_PRODUCT
        args {
          type_id: TFT_TENSOR
          args {
            type_id: TFT_STRING
          }
        }
      }
    }
  }
}
node {
  name: "loader/buffer_size"
  op: "Const"
  attr {
    key: "_output_shapes"
    value {
      list {
        shape {
        }
      }
    }
  }
  attr {
    key: "dtype"
    value {
      type: DT_INT64
    }
  }
  attr {
    key: "value"
    value {
      tensor {
        dtype: DT_INT64
        tensor_shape {
        }
        int64_val: 1577
      }
    }
  }
}
node {
  name: "loader/seed"
  op: "Const"
  attr {
    key: "_output_shapes"
    value {
      list {
        shape {
        }
      }
    }
  }
  attr {
    key: "dtype"
    value {
      type: DT_INT64
    }
  }
  attr {
    key: "value"
    value {
      tensor {
        dtype: DT_INT64
        tensor_shape {
        }
        int64_val: 0
      }
    }
  }
}
node {
  name: "loader/seed2"
  op: "Const"
  attr {
    key: "_output_shapes"
    value {
      list {
        shape {
        }
      }
    }
  }
  attr {
    key: "dtype"
    value {
      type: DT_INT64
    }
  }
  attr {
    key: "value"
    value {
      tensor {
        dtype: DT_INT64
        tensor_shape {
        }
        int64_val: 0
      }
    }
  }
}
node {
  name: "loader/ShuffleDataset"
  op: "ShuffleDataset"
  input: "loader/TensorSliceDataset"
  input: "loader/buffer_size"
  input: "loader/seed"
  input: "loader/seed2"
  attr {
    key: "_output_shapes"
    value {
      list {
        shape {
        }
      }
    }
  }
  attr {
    key: "metadata"
    value {
      s: ""
    }
  }
  attr {
    key: "output_shapes"
    value {
      list {
        shape {
        }
      }
    }
  }
  attr {
    key: "output_types"
    value {
      list {
        type: DT_STRING
      }
    }
  }
  attr {
    key: "reshuffle_each_iteration"
    value {
      b: true
    }
  }
  experimental_type {
    type_id: TFT_PRODUCT
    args {
      type_id: TFT_DATASET
      args {
        type_id: TFT_PRODUCT
        args {
          type_id: TFT_TENSOR
          args {
            type_id: TFT_STRING
          }
        }
      }
    }
  }
}
node {
  name: "loader/count"
  op: "Const"
  attr {
    key: "_output_shapes"
    value {
      list {
        shape {
        }
      }
    }
  }
  attr {
    key: "dtype"
    value {
      type: DT_INT64
    }
  }
  attr {
    key: "value"
    value {
      tensor {
        dtype: DT_INT64
        tensor_shape {
        }
        int64_val: -1
      }
    }
  }
}
node {
  name: "loader/RepeatDataset"
  op: "RepeatDataset"
  input: "loader/ShuffleDataset"
  input: "loader/count"
  attr {
    key: "_output_shapes"
    value {
      list {
        shape {
        }
      }
    }
  }
  attr {
    key: "metadata"
    value {
      s: ""
    }
  }
  attr {
    key: "output_shapes"
    value {
      list {
        shape {
        }
      }
    }
  }
  attr {
    key: "output_types"
    value {
      list {
        type: DT_STRING
      }
    }
  }
  experimental_type {
    type_id: TFT_PRODUCT
    args {
      type_id: TFT_DATASET
      args {
        type_id: TFT_PRODUCT
        args {
          type_id: TFT_TENSOR
          args {
            type_id: TFT_STRING
          }
        }
      }
    }
  }
}
node {
  name: "loader/num_parallel_calls"
  op: "Const"
  attr {
    key: "_output_shapes"
    value {
      list {
        shape {
        }
      }
    }
  }
  attr {
    key: "dtype"
    value {
      type: DT_INT64
    }
  }
  attr {
    key: "value"
    value {
      tensor {
        dtype: DT_INT64
        tensor_shape {
        }
        int64_val: 4
      }
    }
  }
}
node {
  name: "loader/ParallelMapDatasetV2"
  op: "ParallelMapDatasetV2"
  input: "loader/RepeatDataset"
  input: "loader/num_parallel_calls"
  attr {
    key: "Targuments"
    value {
      list {
      }
    }
  }
  attr {
    key: "_output_shapes"
    value {
      list {
        shape {
        }
      }
    }
  }
  attr {
    key: "deterministic"
    value {
      s: "default"
    }
  }
  attr {
    key: "f"
    value {
      func {
        name: "__inference_Dataset_map__decode_audio_shaped_306"
        attr {
          key: "_tf_data_function"
          value {
            b: true
          }
        }
      }
    }
  }
  attr {
    key: "metadata"
    value {
      s: ""
    }
  }
  attr {
    key: "output_shapes"
    value {
      list {
        shape {
          dim {
            size: -1
          }
          dim {
            size: 1
          }
          dim {
            size: 1
          }
        }
      }
    }
  }
  attr {
    key: "output_types"
    value {
      list {
        type: DT_FLOAT
      }
    }
  }
  attr {
    key: "preserve_cardinality"
    value {
      b: true
    }
  }
  attr {
    key: "use_inter_op_parallelism"
    value {
      b: true
    }
  }
  experimental_type {
    type_id: TFT_PRODUCT
    args {
      type_id: TFT_DATASET
      args {
        type_id: TFT_PRODUCT
        args {
          type_id: TFT_TENSOR
          args {
            type_id: TFT_FLOAT
          }
        }
      }
    }
  }
}
node {
  name: "loader/FlatMapDataset"
  op: "FlatMapDataset"
  input: "loader/ParallelMapDatasetV2"
  attr {
    key: "Targuments"
    value {
      list {
      }
    }
  }
  attr {
    key: "_output_shapes"
    value {
      list {
        shape {
        }
      }
    }
  }
  attr {
    key: "f"
    value {
      func {
        name: "__inference_Dataset_flat_map__slice_dataset_wrapper_396"
        attr {
          key: "_tf_data_function"
          value {
            b: true
          }
        }
      }
    }
  }
  attr {
    key: "metadata"
    value {
      s: ""
    }
  }
  attr {
    key: "output_shapes"
    value {
      list {
        shape {
          dim {
            size: 16384
          }
          dim {
            size: 1
          }
          dim {
            size: 1
          }
        }
      }
    }
  }
  attr {
    key: "output_types"
    value {
      list {
        type: DT_FLOAT
      }
    }
  }
  experimental_type {
    type_id: TFT_PRODUCT
    args {
      type_id: TFT_DATASET
      args {
        type_id: TFT_PRODUCT
        args {
          type_id: TFT_TENSOR
          args {
            type_id: TFT_FLOAT
          }
        }
      }
    }
  }
}
node {
  name: "loader/buffer_size_1"
  op: "Const"
  attr {
    key: "_output_shapes"
    value {
      list {
        shape {
        }
      }
    }
  }
  attr {
    key: "dtype"
    value {
      type: DT_INT64
    }
  }
  attr {
    key: "value"
    value {
      tensor {
        dtype: DT_INT64
        tensor_shape {
        }
        int64_val: 4096
      }
    }
  }
}
node {
  name: "loader/seed_1"
  op: "Const"
  attr {
    key: "_output_shapes"
    value {
      list {
        shape {
        }
      }
    }
  }
  attr {
    key: "dtype"
    value {
      type: DT_INT64
    }
  }
  attr {
    key: "value"
    value {
      tensor {
        dtype: DT_INT64
        tensor_shape {
        }
        int64_val: 0
      }
    }
  }
}
node {
  name: "loader/seed2_1"
  op: "Const"
  attr {
    key: "_output_shapes"
    value {
      list {
        shape {
        }
      }
    }
  }
  attr {
    key: "dtype"
    value {
      type: DT_INT64
    }
  }
  attr {
    key: "value"
    value {
      tensor {
        dtype: DT_INT64
        tensor_shape {
        }
        int64_val: 0
      }
    }
  }
}
node {
  name: "loader/ShuffleDataset_1"
  op: "ShuffleDataset"
  input: "loader/FlatMapDataset"
  input: "loader/buffer_size_1"
  input: "loader/seed_1"
  input: "loader/seed2_1"
  attr {
    key: "_output_shapes"
    value {
      list {
        shape {
        }
      }
    }
  }
  attr {
    key: "metadata"
    value {
      s: ""
    }
  }
  attr {
    key: "output_shapes"
    value {
      list {
        shape {
          dim {
            size: 16384
          }
          dim {
            size: 1
          }
          dim {
            size: 1
          }
        }
      }
    }
  }
  attr {
    key: "output_types"
    value {
      list {
        type: DT_FLOAT
      }
    }
  }
  attr {
    key: "reshuffle_each_iteration"
    value {
      b: true
    }
  }
  experimental_type {
    type_id: TFT_PRODUCT
    args {
      type_id: TFT_DATASET
      args {
        type_id: TFT_PRODUCT
        args {
          type_id: TFT_TENSOR
          args {
            type_id: TFT_FLOAT
          }
        }
      }
    }
  }
}
node {
  name: "loader/batch_size"
  op: "Const"
  attr {
    key: "_output_shapes"
    value {
      list {
        shape {
        }
      }
    }
  }
  attr {
    key: "dtype"
    value {
      type: DT_INT64
    }
  }
  attr {
    key: "value"
    value {
      tensor {
        dtype: DT_INT64
        tensor_shape {
        }
        int64_val: 128
      }
    }
  }
}
node {
  name: "loader/drop_remainder"
  op: "Const"
  attr {
    key: "_output_shapes"
    value {
      list {
        shape {
        }
      }
    }
  }
  attr {
    key: "dtype"
    value {
      type: DT_BOOL
    }
  }
  attr {
    key: "value"
    value {
      tensor {
        dtype: DT_BOOL
        tensor_shape {
        }
        bool_val: true
      }
    }
  }
}
node {
  name: "loader/BatchDatasetV2"
  op: "BatchDatasetV2"
  input: "loader/ShuffleDataset_1"
  input: "loader/batch_size"
  input: "loader/drop_remainder"
  attr {
    key: "_output_shapes"
    value {
      list {
        shape {
        }
      }
    }
  }
  attr {
    key: "metadata"
    value {
      s: ""
    }
  }
  attr {
    key: "output_shapes"
    value {
      list {
        shape {
          dim {
            size: 128
          }
          dim {
            size: 16384
          }
          dim {
            size: 1
          }
          dim {
            size: 1
          }
        }
      }
    }
  }
  attr {
    key: "output_types"
    value {
      list {
        type: DT_FLOAT
      }
    }
  }
  attr {
    key: "parallel_copy"
    value {
      b: false
    }
  }
  experimental_type {
    type_id: TFT_PRODUCT
    args {
      type_id: TFT_DATASET
      args {
        type_id: TFT_PRODUCT
        args {
          type_id: TFT_TENSOR
          args {
            type_id: TFT_FLOAT
          }
        }
      }
    }
  }
}
node {
  name: "loader/buffer_size_2"
  op: "Const"
  attr {
    key: "_output_shapes"
    value {
      list {
        shape {
        }
      }
    }
  }
  attr {
    key: "dtype"
    value {
      type: DT_INT64
    }
  }
  attr {
    key: "value"
    value {
      tensor {
        dtype: DT_INT64
        tensor_shape {
        }
        int64_val: 512
      }
    }
  }
}
node {
  name: "loader/PrefetchDataset"
  op: "PrefetchDataset"
  input: "loader/BatchDatasetV2"
  input: "loader/buffer_size_2"
  attr {
    key: "_class"
    value {
      list {
        s: "loc:@loader/BatchDatasetV2"
      }
    }
  }
  attr {
    key: "_output_shapes"
    value {
      list {
        shape {
        }
      }
    }
  }
  attr {
    key: "buffer_size_min"
    value {
      i: 0
    }
  }
  attr {
    key: "legacy_autotune"
    value {
      b: true
    }
  }
  attr {
    key: "metadata"
    value {
      s: ""
    }
  }
  attr {
    key: "output_shapes"
    value {
      list {
        shape {
          dim {
            size: 128
          }
          dim {
            size: 16384
          }
          dim {
            size: 1
          }
          dim {
            size: 1
          }
        }
      }
    }
  }
  attr {
    key: "output_types"
    value {
      list {
        type: DT_FLOAT
      }
    }
  }
  attr {
    key: "slack_period"
    value {
      i: 0
    }
  }
  experimental_type {
    type_id: TFT_PRODUCT
    args {
      type_id: TFT_DATASET
      args {
        type_id: TFT_PRODUCT
        args {
          type_id: TFT_TENSOR
          args {
            type_id: TFT_FLOAT
          }
        }
      }
    }
  }
}
node {
  name: "loader/Const"
  op: "Const"
  attr {
    key: "_output_shapes"
    value {
      list {
        shape {
        }
      }
    }
  }
  attr {
    key: "dtype"
    value {
      type: DT_STRING
    }
  }
  attr {
    key: "value"
    value {
      tensor {
        dtype: DT_STRING
        tensor_shape {
        }
        string_val: "/cpu:0"
      }
    }
  }
}
node {
  name: "loader/WrapDatasetVariant"
  op: "WrapDatasetVariant"
  input: "loader/PrefetchDataset"
  attr {
    key: "_output_shapes"
    value {
      list {
        shape {
        }
      }
    }
  }
}
node {
  name: "loader/GeneratorDataset"
  op: "GeneratorDataset"
  input: "loader/Const"
  input: "loader/WrapDatasetVariant"
  input: "loader/Const"
  input: "loader/Const"
  device: "/device:GPU:0"
  attr {
    key: "Tfinalize_func_args"
    value {
      list {
        type: DT_STRING
      }
    }
  }
  attr {
    key: "Tinit_func_args"
    value {
      list {
        type: DT_STRING
        type: DT_VARIANT
      }
    }
  }
  attr {
    key: "Tnext_func_args"
    value {
      list {
        type: DT_STRING
      }
    }
  }
  attr {
    key: "_output_shapes"
    value {
      list {
        shape {
        }
      }
    }
  }
  attr {
    key: "finalize_func"
    value {
      func {
        name: "__inference__remote_finalize_func_446"
      }
    }
  }
  attr {
    key: "init_func"
    value {
      func {
        name: "__inference__remote_init_func_421"
      }
    }
  }
  attr {
    key: "metadata"
    value {
      s: ""
    }
  }
  attr {
    key: "next_func"
    value {
      func {
        name: "__inference__remote_next_func_434"
        attr {
          key: "experimental_ints_on_device"
          value {
            b: true
          }
        }
      }
    }
  }
  attr {
    key: "output_shapes"
    value {
      list {
        shape {
          dim {
            size: 128
          }
          dim {
            size: 16384
          }
          dim {
            size: 1
          }
          dim {
            size: 1
          }
        }
      }
    }
  }
  attr {
    key: "output_types"
    value {
      list {
        type: DT_FLOAT
      }
    }
  }
  experimental_type {
    type_id: TFT_PRODUCT
    args {
      type_id: TFT_DATASET
      args {
        type_id: TFT_PRODUCT
        args {
          type_id: TFT_TENSOR
          args {
            type_id: TFT_FLOAT
          }
        }
      }
    }
  }
}
node {
  name: "loader/buffer_size_3"
  op: "Const"
  attr {
    key: "_output_shapes"
    value {
      list {
        shape {
        }
      }
    }
  }
  attr {
    key: "dtype"
    value {
      type: DT_INT64
    }
  }
  attr {
    key: "value"
    value {
      tensor {
        dtype: DT_INT64
        tensor_shape {
        }
        int64_val: -1
      }
    }
  }
}
node {
  name: "loader/PrefetchDataset_1"
  op: "PrefetchDataset"
  input: "loader/GeneratorDataset"
  input: "loader/buffer_size_3"
  device: "/device:GPU:0"
  attr {
    key: "_class"
    value {
      list {
        s: "loc:@loader/GeneratorDataset"
      }
    }
  }
  attr {
    key: "_output_shapes"
    value {
      list {
        shape {
        }
      }
    }
  }
  attr {
    key: "buffer_size_min"
    value {
      i: 0
    }
  }
  attr {
    key: "legacy_autotune"
    value {
      b: true
    }
  }
  attr {
    key: "metadata"
    value {
      s: ""
    }
  }
  attr {
    key: "output_shapes"
    value {
      list {
        shape {
          dim {
            size: 128
          }
          dim {
            size: 16384
          }
          dim {
            size: 1
          }
          dim {
            size: 1
          }
        }
      }
    }
  }
  attr {
    key: "output_types"
    value {
      list {
        type: DT_FLOAT
      }
    }
  }
  attr {
    key: "slack_period"
    value {
      i: 0
    }
  }
  experimental_type {
    type_id: TFT_PRODUCT
    args {
      type_id: TFT_DATASET
      args {
        type_id: TFT_PRODUCT
        args {
          type_id: TFT_TENSOR
          args {
            type_id: TFT_FLOAT
          }
        }
      }
    }
  }
}
node {
  name: "loader/OneShotIterator"
  op: "OneShotIterator"
  device: "/device:GPU:0"
  attr {
    key: "_class"
    value {
      list {
        s: "loc:@loader/GeneratorDataset"
      }
    }
  }
  attr {
    key: "_output_shapes"
    value {
      list {
        shape {
        }
      }
    }
  }
  attr {
    key: "container"
    value {
      s: ""
    }
  }
  attr {
    key: "dataset_factory"
    value {
      func {
        name: "_make_dataset_gfxwy9dQEc8"
      }
    }
  }
  attr {
    key: "output_shapes"
    value {
      list {
        shape {
          dim {
            size: 128
          }
          dim {
            size: 16384
          }
          dim {
            size: 1
          }
          dim {
            size: 1
          }
        }
      }
    }
  }
  attr {
    key: "output_types"
    value {
      list {
        type: DT_FLOAT
      }
    }
  }
  attr {
    key: "shared_name"
    value {
      s: ""
    }
  }
}
node {
  name: "loader/IteratorToStringHandle"
  op: "IteratorToStringHandle"
  input: "loader/OneShotIterator"
  device: "/device:GPU:0"
  attr {
    key: "_class"
    value {
      list {
        s: "loc:@loader/GeneratorDataset"
      }
    }
  }
  attr {
    key: "_output_shapes"
    value {
      list {
        shape {
        }
      }
    }
  }
}
node {
  name: "loader/IteratorGetNext"
  op: "IteratorGetNext"
  input: "loader/OneShotIterator"
  device: "/device:GPU:0"
  attr {
    key: "_class"
    value {
      list {
        s: "loc:@loader/GeneratorDataset"
      }
    }
  }
  attr {
    key: "_output_shapes"
    value {
      list {
        shape {
          dim {
            size: 128
          }
          dim {
            size: 16384
          }
          dim {
            size: 1
          }
          dim {
            size: 1
          }
        }
      }
    }
  }
  attr {
    key: "output_shapes"
    value {
      list {
        shape {
          dim {
            size: 128
          }
          dim {
            size: 16384
          }
          dim {
            size: 1
          }
          dim {
            size: 1
          }
        }
      }
    }
  }
  attr {
    key: "output_types"
    value {
      list {
        type: DT_FLOAT
      }
    }
  }
}
node {
  name: "loader/strided_slice/stack"
  op: "Const"
  attr {
    key: "_output_shapes"
    value {
      list {
        shape {
          dim {
            size: 3
          }
        }
      }
    }
  }
  attr {
    key: "dtype"
    value {
      type: DT_INT32
    }
  }
  attr {
    key: "value"
    value {
      tensor {
        dtype: DT_INT32
        tensor_shape {
          dim {
            size: 3
          }
        }
        tensor_content: "\000\000\000\000\000\000\000\000\000\000\000\000"
      }
    }
  }
}
node {
  name: "loader/strided_slice/stack_1"
  op: "Const"
  attr {
    key: "_output_shapes"
    value {
      list {
        shape {
          dim {
            size: 3
          }
        }
      }
    }
  }
  attr {
    key: "dtype"
    value {
      type: DT_INT32
    }
  }
  attr {
    key: "value"
    value {
      tensor {
        dtype: DT_INT32
        tensor_shape {
          dim {
            size: 3
          }
        }
        tensor_content: "\000\000\000\000\000\000\000\000\001\000\000\000"
      }
    }
  }
}
node {
  name: "loader/strided_slice/stack_2"
  op: "Const"
  attr {
    key: "_output_shapes"
    value {
      list {
        shape {
          dim {
            size: 3
          }
        }
      }
    }
  }
  attr {
    key: "dtype"
    value {
      type: DT_INT32
    }
  }
  attr {
    key: "value"
    value {
      tensor {
        dtype: DT_INT32
        tensor_shape {
          dim {
            size: 3
          }
        }
        tensor_content: "\001\000\000\000\001\000\000\000\001\000\000\000"
      }
    }
  }
}
node {
  name: "loader/strided_slice"
  op: "StridedSlice"
  input: "loader/IteratorGetNext"
  input: "loader/strided_slice/stack"
  input: "loader/strided_slice/stack_1"
  input: "loader/strided_slice/stack_2"
  attr {
    key: "Index"
    value {
      type: DT_INT32
    }
  }
  attr {
    key: "T"
    value {
      type: DT_FLOAT
    }
  }
  attr {
    key: "_output_shapes"
    value {
      list {
        shape {
          dim {
            size: 128
          }
          dim {
            size: 16384
          }
          dim {
            size: 1
          }
        }
      }
    }
  }
  attr {
    key: "begin_mask"
    value {
      i: 3
    }
  }
  attr {
    key: "ellipsis_mask"
    value {
      i: 0
    }
  }
  attr {
    key: "end_mask"
    value {
      i: 3
    }
  }
  attr {
    key: "new_axis_mask"
    value {
      i: 0
    }
  }
  attr {
    key: "shrink_axis_mask"
    value {
      i: 4
    }
  }
}
node {
  name: "random_uniform/shape"
  op: "Const"
  attr {
    key: "_output_shapes"
    value {
      list {
        shape {
          dim {
            size: 2
          }
        }
      }
    }
  }
  attr {
    key: "dtype"
    value {
      type: DT_INT32
    }
  }
  attr {
    key: "value"
    value {
      tensor {
        dtype: DT_INT32
        tensor_shape {
          dim {
            size: 2
          }
        }
        tensor_content: "\200\000\000\000d\000\000\000"
      }
    }
  }
}
node {
  name: "random_uniform/min"
  op: "Const"
  attr {
    key: "_output_shapes"
    value {
      list {
        shape {
        }
      }
    }
  }
  attr {
    key: "dtype"
    value {
      type: DT_FLOAT
    }
  }
  attr {
    key: "value"
    value {
      tensor {
        dtype: DT_FLOAT
        tensor_shape {
        }
        float_val: -1.0
      }
    }
  }
}
node {
  name: "random_uniform/max"
  op: "Const"
  attr {
    key: "_output_shapes"
    value {
      list {
        shape {
        }
      }
    }
  }
  attr {
    key: "dtype"
    value {
      type: DT_FLOAT
    }
  }
  attr {
    key: "value"
    value {
      tensor {
        dtype: DT_FLOAT
        tensor_shape {
        }
        float_val: 1.0
      }
    }
  }
}
node {
  name: "random_uniform/RandomUniform"
  op: "RandomUniform"
  input: "random_uniform/shape"
  attr {
    key: "T"
    value {
      type: DT_INT32
    }
  }
  attr {
    key: "_output_shapes"
    value {
      list {
        shape {
          dim {
            size: 128
          }
          dim {
            size: 100
          }
        }
      }
    }
  }
  attr {
    key: "dtype"
    value {
      type: DT_FLOAT
    }
  }
  attr {
    key: "seed"
    value {
      i: 0
    }
  }
  attr {
    key: "seed2"
    value {
      i: 0
    }
  }
}
node {
  name: "random_uniform/sub"
  op: "Sub"
  input: "random_uniform/max"
  input: "random_uniform/min"
  attr {
    key: "T"
    value {
      type: DT_FLOAT
    }
  }
  attr {
    key: "_output_shapes"
    value {
      list {
        shape {
        }
      }
    }
  }
}
node {
  name: "random_uniform/mul"
  op: "Mul"
  input: "random_uniform/RandomUniform"
  input: "random_uniform/sub"
  attr {
    key: "T"
    value {
      type: DT_FLOAT
    }
  }
  attr {
    key: "_output_shapes"
    value {
      list {
        shape {
          dim {
            size: 128
          }
          dim {
            size: 100
          }
        }
      }
    }
  }
}
node {
  name: "random_uniform"
  op: "AddV2"
  input: "random_uniform/mul"
  input: "random_uniform/min"
  attr {
    key: "T"
    value {
      type: DT_FLOAT
    }
  }
  attr {
    key: "_output_shapes"
    value {
      list {
        shape {
          dim {
            size: 128
          }
          dim {
            size: 100
          }
        }
      }
    }
  }
}
node {
  name: "G/Shape"
  op: "Const"
  attr {
    key: "_output_shapes"
    value {
      list {
        shape {
          dim {
            size: 2
          }
        }
      }
    }
  }
  attr {
    key: "dtype"
    value {
      type: DT_INT32
    }
  }
  attr {
    key: "value"
    value {
      tensor {
        dtype: DT_INT32
        tensor_shape {
          dim {
            size: 2
          }
        }
        tensor_content: "\200\000\000\000d\000\000\000"
      }
    }
  }
}
node {
  name: "G/strided_slice/stack"
  op: "Const"
  attr {
    key: "_output_shapes"
    value {
      list {
        shape {
          dim {
            size: 1
          }
        }
      }
    }
  }
  attr {
    key: "dtype"
    value {
      type: DT_INT32
    }
  }
  attr {
    key: "value"
    value {
      tensor {
        dtype: DT_INT32
        tensor_shape {
          dim {
            size: 1
          }
        }
        int_val: 0
      }
    }
  }
}
node {
  name: "G/strided_slice/stack_1"
  op: "Const"
  attr {
    key: "_output_shapes"
    value {
      list {
        shape {
          dim {
            size: 1
          }
        }
      }
    }
  }
  attr {
    key: "dtype"
    value {
      type: DT_INT32
    }
  }
  attr {
    key: "value"
    value {
      tensor {
        dtype: DT_INT32
        tensor_shape {
          dim {
            size: 1
          }
        }
        int_val: 1
      }
    }
  }
}
node {
  name: "G/strided_slice/stack_2"
  op: "Const"
  attr {
    key: "_output_shapes"
    value {
      list {
        shape {
          dim {
            size: 1
          }
        }
      }
    }
  }
  attr {
    key: "dtype"
    value {
      type: DT_INT32
    }
  }
  attr {
    key: "value"
    value {
      tensor {
        dtype: DT_INT32
        tensor_shape {
          dim {
            size: 1
          }
        }
        int_val: 1
      }
    }
  }
}
node {
  name: "G/strided_slice"
  op: "StridedSlice"
  input: "G/Shape"
  input: "G/strided_slice/stack"
  input: "G/strided_slice/stack_1"
  input: "G/strided_slice/stack_2"
  attr {
    key: "Index"
    value {
      type: DT_INT32
    }
  }
  attr {
    key: "T"
    value {
      type: DT_INT32
    }
  }
  attr {
    key: "_output_shapes"
    value {
      list {
        shape {
        }
      }
    }
  }
  attr {
    key: "begin_mask"
    value {
      i: 0
    }
  }
  attr {
    key: "ellipsis_mask"
    value {
      i: 0
    }
  }
  attr {
    key: "end_mask"
    value {
      i: 0
    }
  }
  attr {
    key: "new_axis_mask"
    value {
      i: 0
    }
  }
  attr {
    key: "shrink_axis_mask"
    value {
      i: 1
    }
  }
}
node {
  name: "G/z_project/dense/kernel/Initializer/random_uniform/shape"
  op: "Const"
  attr {
    key: "_class"
    value {
      list {
        s: "loc:@G/z_project/dense/kernel"
      }
    }
  }
  attr {
    key: "_output_shapes"
    value {
      list {
        shape {
          dim {
            size: 2
          }
        }
      }
    }
  }
  attr {
    key: "dtype"
    value {
      type: DT_INT32
    }
  }
  attr {
    key: "value"
    value {
      tensor {
        dtype: DT_INT32
        tensor_shape {
          dim {
            size: 2
          }
        }
        tensor_content: "d\000\000\000\000@\000\000"
      }
    }
  }
}
node {
  name: "G/z_project/dense/kernel/Initializer/random_uniform/min"
  op: "Const"
  attr {
    key: "_class"
    value {
      list {
        s: "loc:@G/z_project/dense/kernel"
      }
    }
  }
  attr {
    key: "_output_shapes"
    value {
      list {
        shape {
        }
      }
    }
  }
  attr {
    key: "dtype"
    value {
      type: DT_FLOAT
    }
  }
  attr {
    key: "value"
    value {
      tensor {
        dtype: DT_FLOAT
        tensor_shape {
        }
        float_val: -0.019078504294157028
      }
    }
  }
}
node {
  name: "G/z_project/dense/kernel/Initializer/random_uniform/max"
  op: "Const"
  attr {
    key: "_class"
    value {
      list {
        s: "loc:@G/z_project/dense/kernel"
      }
    }
  }
  attr {
    key: "_output_shapes"
    value {
      list {
        shape {
        }
      }
    }
  }
  attr {
    key: "dtype"
    value {
      type: DT_FLOAT
    }
  }
  attr {
    key: "value"
    value {
      tensor {
        dtype: DT_FLOAT
        tensor_shape {
        }
        float_val: 0.019078504294157028
      }
    }
  }
}
node {
  name: "G/z_project/dense/kernel/Initializer/random_uniform/RandomUniform"
  op: "RandomUniform"
  input: "G/z_project/dense/kernel/Initializer/random_uniform/shape"
  attr {
    key: "T"
    value {
      type: DT_INT32
    }
  }
  attr {
    key: "_class"
    value {
      list {
        s: "loc:@G/z_project/dense/kernel"
      }
    }
  }
  attr {
    key: "_output_shapes"
    value {
      list {
        shape {
          dim {
            size: 100
          }
          dim {
            size: 16384
          }
        }
      }
    }
  }
  attr {
    key: "dtype"
    value {
      type: DT_FLOAT
    }
  }
  attr {
    key: "seed"
    value {
      i: 0
    }
  }
  attr {
    key: "seed2"
    value {
      i: 0
    }
  }
}
node {
  name: "G/z_project/dense/kernel/Initializer/random_uniform/sub"
  op: "Sub"
  input: "G/z_project/dense/kernel/Initializer/random_uniform/max"
  input: "G/z_project/dense/kernel/Initializer/random_uniform/min"
  attr {
    key: "T"
    value {
      type: DT_FLOAT
    }
  }
  attr {
    key: "_class"
    value {
      list {
        s: "loc:@G/z_project/dense/kernel"
      }
    }
  }
  attr {
    key: "_output_shapes"
    value {
      list {
        shape {
        }
      }
    }
  }
}
node {
  name: "G/z_project/dense/kernel/Initializer/random_uniform/mul"
  op: "Mul"
  input: "G/z_project/dense/kernel/Initializer/random_uniform/RandomUniform"
  input: "G/z_project/dense/kernel/Initializer/random_uniform/sub"
  attr {
    key: "T"
    value {
      type: DT_FLOAT
    }
  }
  attr {
    key: "_class"
    value {
      list {
        s: "loc:@G/z_project/dense/kernel"
      }
    }
  }
  attr {
    key: "_output_shapes"
    value {
      list {
        shape {
          dim {
            size: 100
          }
          dim {
            size: 16384
          }
        }
      }
    }
  }
}
node {
  name: "G/z_project/dense/kernel/Initializer/random_uniform"
  op: "AddV2"
  input: "G/z_project/dense/kernel/Initializer/random_uniform/mul"
  input: "G/z_project/dense/kernel/Initializer/random_uniform/min"
  attr {
    key: "T"
    value {
      type: DT_FLOAT
    }
  }
  attr {
    key: "_class"
    value {
      list {
        s: "loc:@G/z_project/dense/kernel"
      }
    }
  }
  attr {
    key: "_output_shapes"
    value {
      list {
        shape {
          dim {
            size: 100
          }
          dim {
            size: 16384
          }
        }
      }
    }
  }
}
node {
  name: "G/z_project/dense/kernel"
  op: "VarHandleOp"
  attr {
    key: "_class"
    value {
      list {
        s: "loc:@G/z_project/dense/kernel"
      }
    }
  }
  attr {
    key: "_output_shapes"
    value {
      list {
        shape {
        }
      }
    }
  }
  attr {
    key: "allowed_devices"
    value {
      list {
      }
    }
  }
  attr {
    key: "container"
    value {
      s: ""
    }
  }
  attr {
    key: "dtype"
    value {
      type: DT_FLOAT
    }
  }
  attr {
    key: "shape"
    value {
      shape {
        dim {
          size: 100
        }
        dim {
          size: 16384
        }
      }
    }
  }
  attr {
    key: "shared_name"
    value {
      s: "G/z_project/dense/kernel"
    }
  }
}
node {
  name: "G/z_project/dense/kernel/IsInitialized/VarIsInitializedOp"
  op: "VarIsInitializedOp"
  input: "G/z_project/dense/kernel"
  attr {
    key: "_output_shapes"
    value {
      list {
        shape {
        }
      }
    }
  }
}
node {
  name: "G/z_project/dense/kernel/Assign"
  op: "AssignVariableOp"
  input: "G/z_project/dense/kernel"
…
            string_val: "/content/drive/MyDrive/heartbeat artifact/001262.wav"
            string_val: "/content/drive/MyDrive/heartbeat artifact/001239.wav"
            string_val: "/content/drive/MyDrive/heartbeat artifact/001267.wav"
            string_val: "/content/drive/MyDrive/heartbeat artifact/001325.wav"
            string_val: "/content/drive/MyDrive/heartbeat artifact/001288.wav"
            string_val: "/content/drive/MyDrive/heartbeat artifact/001304.wav"
            string_val: "/content/drive/MyDrive/heartbeat artifact/001323.wav"
            string_val: "/content/drive/MyDrive/heartbeat artifact/001274.wav"
            string_val: "/content/drive/MyDrive/heartbeat artifact/001244.wav"
            string_val: "/content/drive/MyDrive/heartbeat artifact/001285.wav"
            string_val: "/content/drive/MyDrive/heartbeat artifact/001310.wav"
            string_val: "/content/drive/MyDrive/heartbeat artifact/001278.wav"
            string_val: "/content/drive/MyDrive/heartbeat artifact/001264.wav"
            string_val: "/content/drive/MyDrive/heartbeat artifact/001228.wav"
            string_val: "/content/drive/MyDrive/heartbeat artifact/001257.wav"
            string_val: "/content/drive/MyDrive/heartbeat artifact/001283.wav"
            string_val: "/content/drive/MyDrive/heartbeat artifact/001346.wav"
            string_val: "/content/drive/MyDrive/heartbeat artifact/001348.wav"
            string_val: "/content/drive/MyDrive/heartbeat artifact/001235.wav"
            string_val: "/content/drive/MyDrive/heartbeat artifact/001341.wav"
            string_val: "/content/drive/MyDrive/heartbeat artifact/001279.wav"
            string_val: "/content/drive/MyDrive/heartbeat artifact/001328.wav"
            string_val: "/content/drive/MyDrive/heartbeat artifact/001305.wav"
            string_val: "/content/drive/MyDrive/heartbeat artifact/001322.wav"
            string_val: "/content/drive/MyDrive/heartbeat artifact/001324.wav"
            string_val: "/content/drive/MyDrive/heartbeat artifact/001295.wav"
            string_val: "/content/drive/MyDrive/heartbeat artifact/001290.wav"
            string_val: "/content/drive/MyDrive/heartbeat artifact/001292.wav"
            string_val: "/content/drive/MyDrive/heartbeat artifact/001350.wav"
            string_val: "/content/drive/MyDrive/heartbeat artifact/001286.wav"
            string_val: "/content/drive/MyDrive/heartbeat artifact/001254.wav"
            string_val: "/content/drive/MyDrive/heartbeat artifact/001333.wav"
            string_val: "/content/drive/MyDrive/heartbeat artifact/001344.wav"
            string_val: "/content/drive/MyDrive/heartbeat artifact/001302.wav"
            string_val: "/content/drive/MyDrive/heartbeat artifact/001433.wav"
            string_val: "/content/drive/MyDrive/heartbeat artifact/001300.wav"
            string_val: "/content/drive/MyDrive/heartbeat artifact/001277.wav"
            string_val: "/content/drive/MyDrive/heartbeat artifact/001299.wav"
            string_val: "/content/drive/MyDrive/heartbeat artifact/001301.wav"
            string_val: "/content/drive/MyDrive/heartbeat artifact/001249.wav"
            string_val: "/content/drive/MyDrive/heartbeat artifact/001315.wav"
            string_val: "/content/drive/MyDrive/heartbeat artifact/001247.wav"
            string_val: "/content/drive/MyDrive/heartbeat artifact/001335.wav"
            string_val: "/content/drive/MyDrive/heartbeat artifact/001236.wav"
            string_val: "/content/drive/MyDrive/heartbeat artifact/001307.wav"
            string_val: "/content/drive/MyDrive/heartbeat artifact/001269.wav"
            string_val: "/content/drive/MyDrive/heartbeat artifact/001318.wav"
            string_val: "/content/drive/MyDrive/heartbeat artifact/001331.wav"
            string_val: "/content/drive/MyDrive/heartbeat artifact/001270.wav"
            string_val: "/content/drive/MyDrive/heartbeat artifact/001284.wav"
            string_val: "/content/drive/MyDrive/heartbeat artifact/001312.wav"
            string_val: "/content/drive/MyDrive/heartbeat artifact/001319.wav"
            string_val: "/content/drive/MyDrive/heartbeat artifact/001261.wav"
            string_val: "/content/drive/MyDrive/heartbeat artifact/001271.wav"
            string_val: "/content/drive/MyDrive/heartbeat artifact/001256.wav"
            string_val: "/content/drive/MyDrive/heartbeat artifact/001281.wav"
            string_val: "/content/drive/MyDrive/heartbeat artifact/001336.wav"
            string_val: "/content/drive/MyDrive/heartbeat artifact/001258.wav"
            string_val: "/content/drive/MyDrive/heartbeat artifact/001260.wav"
            string_val: "/content/drive/MyDrive/heartbeat artifact/001308.wav"
            string_val: "/content/drive/MyDrive/heartbeat artifact/001329.wav"
            string_val: "/content/drive/MyDrive/heartbeat artifact/001430.wav"
            string_val: "/content/drive/MyDrive/heartbeat artifact/001230.wav"
            string_val: "/content/drive/MyDrive/heartbeat artifact/001243.wav"
            string_val: "/content/drive/MyDrive/heartbeat artifact/001265.wav"
            string_val: "/content/drive/MyDrive/heartbeat artifact/001338.wav"
            string_val: "/content/drive/MyDrive/heartbeat artifact/001251.wav"
            string_val: "/content/drive/MyDrive/heartbeat artifact/001242.wav"
            string_val: "/content/drive/MyDrive/heartbeat artifact/001355.wav"
            string_val: "/content/drive/MyDrive/heartbeat artifact/001384.wav"
            string_val: "/content/drive/MyDrive/heartbeat artifact/001443.wav"
            string_val: "/content/drive/MyDrive/heartbeat artifact/001453.wav"
            string_val: "/content/drive/MyDrive/heartbeat artifact/001478.wav"
            string_val: "/content/drive/MyDrive/heartbeat artifact/001375.wav"
            string_val: "/content/drive/MyDrive/heartbeat artifact/001373.wav"
            string_val: "/content/drive/MyDrive/heartbeat artifact/001379.wav"
            string_val: "/content/drive/MyDrive/heartbeat artifact/001462.wav"
            string_val: "/content/drive/MyDrive/heartbeat artifact/001421.wav"
            string_val: "/content/drive/MyDrive/heartbeat artifact/001363.wav"
            string_val: "/content/drive/MyDrive/heartbeat artifact/001459.wav"
            string_val: "/content/drive/MyDrive/heartbeat artifact/001417.wav"
            string_val: "/content/drive/MyDrive/heartbeat artifact/001405.wav"
            string_val: "/content/drive/MyDrive/heartbeat artifact/001445.wav"
            string_val: "/content/drive/MyDrive/heartbeat artifact/001468.wav"
            string_val: "/content/drive/MyDrive/heartbeat artifact/001380.wav"
            string_val: "/content/drive/MyDrive/heartbeat artifact/001365.wav"
            string_val: "/content/drive/MyDrive/heartbeat artifact/001418.wav"
            string_val: "/content/drive/MyDrive/heartbeat artifact/001466.wav"
            string_val: "/content/drive/MyDrive/heartbeat artifact/001392.wav"
            string_val: "/content/drive/MyDrive/heartbeat artifact/001451.wav"
            string_val: "/content/drive/MyDrive/heartbeat artifact/001467.wav"
            string_val: "/content/drive/MyDrive/heartbeat artifact/001354.wav"
            string_val: "/content/drive/MyDrive/heartbeat artifact/001419.wav"
            string_val: "/content/drive/MyDrive/heartbeat artifact/001364.wav"
            string_val: "/content/drive/MyDrive/heartbeat artifact/001391.wav"
            string_val: "/content/drive/MyDrive/heartbeat artifact/001371.wav"
            string_val: "/content/drive/MyDrive/heartbeat artifact/001352.wav"
            string_val: "/content/drive/MyDrive/heartbeat artifact/001475.wav"
            string_val: "/content/drive/MyDrive/heartbeat artifact/001444.wav"
            string_val: "/content/drive/MyDrive/heartbeat artifact/001409.wav"
            string_val: "/content/drive/MyDrive/heartbeat artifact/001361.wav"
            string_val: "/content/drive/MyDrive/heartbeat artifact/001360.wav"
            string_val: "/content/drive/MyDrive/heartbeat artifact/001359.wav"
            string_val: "/content/drive/MyDrive/heartbeat artifact/001385.wav"
            string_val: "/content/drive/MyDrive/heartbeat artifact/001474.wav"
            string_val: "/content/drive/MyDrive/heartbeat artifact/001448.wav"
            string_val: "/content/drive/MyDrive/heartbeat artifact/001387.wav"
            string_val: "/content/drive/MyDrive/heartbeat artifact/001473.wav"
            string_val: "/content/drive/MyDrive/heartbeat artifact/001441.wav"
            string_val: "/content/drive/MyDrive/heartbeat artifact/001412.wav"
            string_val: "/content/drive/MyDrive/heartbeat artifact/001394.wav"
            string_val: "/content/drive/MyDrive/heartbeat artifact/001464.wav"
            string_val: "/content/drive/MyDrive/heartbeat artifact/001442.wav"
            string_val: "/content/drive/MyDrive/heartbeat artifact/001368.wav"
            string_val: "/content/drive/MyDrive/heartbeat artifact/001470.wav"
            string_val: "/content/drive/MyDrive/heartbeat artifact/001472.wav"
            string_val: "/content/drive/MyDrive/heartbeat artifact/001357.wav"
            string_val: "/content/drive/MyDrive/heartbeat artifact/001353.wav"
            string_val: "/content/drive/MyDrive/heartbeat artifact/001436.wav"
            string_val: "/content/drive/MyDrive/heartbeat artifact/001477.wav"
            string_val: "/content/drive/MyDrive/heartbeat artifact/001461.wav"
            string_val: "/content/drive/MyDrive/heartbeat artifact/001438.wav"
            string_val: "/content/drive/MyDrive/heartbeat artifact/001383.wav"
            string_val: "/content/drive/MyDrive/heartbeat artifact/001425.wav"
            string_val: "/content/drive/MyDrive/heartbeat artifact/001422.wav"
            string_val: "/content/drive/MyDrive/heartbeat artifact/001400.wav"
            string_val: "/content/drive/MyDrive/heartbeat artifact/001389.wav"
            string_val: "/content/drive/MyDrive/heartbeat artifact/001396.wav"
            string_val: "/content/drive/MyDrive/heartbeat artifact/001456.wav"
            string_val: "/content/drive/MyDrive/heartbeat artifact/001455.wav"
            string_val: "/content/drive/MyDrive/heartbeat artifact/001382.wav"
            string_val: "/content/drive/MyDrive/heartbeat artifact/001449.wav"
            string_val: "/content/drive/MyDrive/heartbeat artifact/001399.wav"
            string_val: "/content/drive/MyDrive/heartbeat artifact/001406.wav"
            string_val: "/content/drive/MyDrive/heartbeat artifact/001377.wav"
            string_val: "/content/drive/MyDrive/heartbeat artifact/001393.wav"
            string_val: "/content/drive/MyDrive/heartbeat artifact/001356.wav"
            string_val: "/content/drive/MyDrive/heartbeat artifact/001369.wav"
            string_val: "/content/drive/MyDrive/heartbeat artifact/001416.wav"
            string_val: "/content/drive/MyDrive/heartbeat artifact/001471.wav"
            string_val: "/content/drive/MyDrive/heartbeat artifact/001403.wav"
            string_val: "/content/drive/MyDrive/heartbeat artifact/001408.wav"
            string_val: "/content/drive/MyDrive/heartbeat artifact/001411.wav"
            string_val: "/content/drive/MyDrive/heartbeat artifact/001374.wav"
            string_val: "/content/drive/MyDrive/heartbeat artifact/001402.wav"
            string_val: "/content/drive/MyDrive/heartbeat artifact/001358.wav"
            string_val: "/content/drive/MyDrive/heartbeat artifact/001446.wav"
            string_val: "/content/drive/MyDrive/heartbeat artifact/001413.wav"
            string_val: "/content/drive/MyDrive/heartbeat artifact/001372.wav"
            string_val: "/content/drive/MyDrive/heartbeat artifact/001440.wav"
            string_val: "/content/drive/MyDrive/heartbeat artifact/001439.wav"
            string_val: "/content/drive/MyDrive/heartbeat artifact/001414.wav"
            string_val: "/content/drive/MyDrive/heartbeat artifact/001381.wav"
            string_val: "/content/drive/MyDrive/heartbeat artifact/001367.wav"
            string_val: "/content/drive/MyDrive/heartbeat artifact/001351.wav"
            string_val: "/content/drive/MyDrive/heartbeat artifact/001410.wav"
            string_val: "/content/drive/MyDrive/heartbeat artifact/001370.wav"
            string_val: "/content/drive/MyDrive/heartbeat artifact/001415.wav"
            string_val: "/content/drive/MyDrive/heartbeat artifact/001458.wav"
            string_val: "/content/drive/MyDrive/heartbeat artifact/001460.wav"
            string_val: "/content/drive/MyDrive/heartbeat artifact/001465.wav"
            string_val: "/content/drive/MyDrive/heartbeat artifact/001454.wav"
            string_val: "/content/drive/MyDrive/heartbeat artifact/001390.wav"
            string_val: "/content/drive/MyDrive/heartbeat artifact/001404.wav"
            string_val: "/content/drive/MyDrive/heartbeat artifact/001423.wav"
            string_val: "/content/drive/MyDrive/heartbeat artifact/001476.wav"
            string_val: "/content/drive/MyDrive/heartbeat artifact/001452.wav"
            string_val: "/content/drive/MyDrive/heartbeat artifact/001397.wav"
            string_val: "/content/drive/MyDrive/heartbeat artifact/001426.wav"
            string_val: "/content/drive/MyDrive/heartbeat artifact/001407.wav"
            string_val: "/content/drive/MyDrive/heartbeat artifact/001388.wav"
            string_val: "/content/drive/MyDrive/heartbeat artifact/001366.wav"
            string_val: "/content/drive/MyDrive/heartbeat artifact/001420.wav"
            string_val: "/content/drive/MyDrive/heartbeat artifact/001401.wav"
            string_val: "/content/drive/MyDrive/heartbeat artifact/001386.wav"
            string_val: "/content/drive/MyDrive/heartbeat artifact/001437.wav"
            string_val: "/content/drive/MyDrive/heartbeat artifact/001424.wav"
            string_val: "/content/drive/MyDrive/heartbeat artifact/001376.wav"
            string_val: "/content/drive/MyDrive/heartbeat artifact/001395.wav"
            string_val: "/content/drive/MyDrive/heartbeat artifact/001378.wav"
            string_val: "/content/drive/MyDrive/heartbeat artifact/001362.wav"
            string_val: "/content/drive/MyDrive/heartbeat artifact/001447.wav"
            string_val: "/content/drive/MyDrive/heartbeat artifact/001469.wav"
            string_val: "/content/drive/MyDrive/heartbeat artifact/001463.wav"
            string_val: "/content/drive/MyDrive/heartbeat artifact/001457.wav"
            string_val: "/content/drive/MyDrive/heartbeat artifact/001450.wav"
            string_val: "/content/drive/MyDrive/heartbeat artifact/001398.wav"
            string_val: "/content/drive/MyDrive/heartbeat artifact/001501.wav"
            string_val: "/content/drive/MyDrive/heartbeat artifact/001517.wav"
            string_val: "/content/drive/MyDrive/heartbeat artifact/001498.wav"
            string_val: "/content/drive/MyDrive/heartbeat artifact/001521.wav"
            string_val: "/content/drive/MyDrive/heartbeat artifact/001557.wav"
            string_val: "/content/drive/MyDrive/heartbeat artifact/001543.wav"
            string_val: "/content/drive/MyDrive/heartbeat artifact/0064.wav"
            string_val: "/content/drive/MyDrive/heartbeat artifact/001513.wav"
            string_val: "/content/drive/MyDrive/heartbeat artifact/001515.wav"
            string_val: "/content/drive/MyDrive/heartbeat artifact/001552.wav"
            string_val: "/content/drive/MyDrive/heartbeat artifact/001564.wav"
            string_val: "/content/drive/MyDrive/heartbeat artifact/001530.wav"
            string_val: "/content/drive/MyDrive/heartbeat artifact/001554.wav"
            string_val: "/content/drive/MyDrive/heartbeat artifact/001575.wav"
            string_val: "/content/drive/MyDrive/heartbeat artifact/001497.wav"
            string_val: "/content/drive/MyDrive/heartbeat artifact/0067.wav"
            string_val: "/content/drive/MyDrive/heartbeat artifact/001539.wav"
            string_val: "/content/drive/MyDrive/heartbeat artifact/001529.wav"
            string_val: "/content/drive/MyDrive/heartbeat artifact/001566.wav"
            string_val: "/content/drive/MyDrive/heartbeat artifact/0062.wav"
            string_val: "/content/drive/MyDrive/heartbeat artifact/001500.wav"
            string_val: "/content/drive/MyDrive/heartbeat artifact/001574.wav"
            string_val: "/content/drive/MyDrive/heartbeat artifact/0060.wav"
            string_val: "/content/drive/MyDrive/heartbeat artifact/001493.wav"
            string_val: "/content/drive/MyDrive/heartbeat artifact/001553.wav"
            string_val: "/content/drive/MyDrive/heartbeat artifact/001567.wav"
            string_val: "/content/drive/MyDrive/heartbeat artifact/001545.wav"
            string_val: "/content/drive/MyDrive/heartbeat artifact/001533.wav"
            string_val: "/content/drive/MyDrive/heartbeat artifact/001489.wav"
            string_val: "/content/drive/MyDrive/heartbeat artifact/001524.wav"
            string_val: "/content/drive/MyDrive/heartbeat artifact/001525.wav"
            string_val: "/content/drive/MyDrive/heartbeat artifact/0063.wav"
            string_val: "/content/drive/MyDrive/heartbeat artifact/001499.wav"
            string_val: "/content/drive/MyDrive/heartbeat artifact/001494.wav"
            string_val: "/content/drive/MyDrive/heartbeat artifact/001490.wav"
            string_val: "/content/drive/MyDrive/heartbeat artifact/001576.wav"
            string_val: "/content/drive/MyDrive/heartbeat artifact/001531.wav"
            string_val: "/content/drive/MyDrive/heartbeat artifact/001561.wav"
            string_val: "/content/drive/MyDrive/heartbeat artifact/0070.wav"
            string_val: "/content/drive/MyDrive/heartbeat artifact/001505.wav"
            string_val: "/content/drive/MyDrive/heartbeat artifact/001572.wav"
            string_val: "/content/drive/MyDrive/heartbeat artifact/001565.wav"
            string_val: "/content/drive/MyDrive/heartbeat artifact/001535.wav"
            string_val: "/content/drive/MyDrive/heartbeat artifact/0059.wav"
            string_val: "/content/drive/MyDrive/heartbeat artifact/001563.wav"
            string_val: "/content/drive/MyDrive/heartbeat artifact/001544.wav"
            string_val: "/content/drive/MyDrive/heartbeat artifact/001488.wav"
            string_val: "/content/drive/MyDrive/heartbeat artifact/001492.wav"
            string_val: "/content/drive/MyDrive/heartbeat artifact/0071.wav"
            string_val: "/content/drive/MyDrive/heartbeat artifact/001486.wav"
            string_val: "/content/drive/MyDrive/heartbeat artifact/001527.wav"
            string_val: "/content/drive/MyDrive/heartbeat artifact/001523.wav"
            string_val: "/content/drive/MyDrive/heartbeat artifact/001562.wav"
            string_val: "/content/drive/MyDrive/heartbeat artifact/001558.wav"
            string_val: "/content/drive/MyDrive/heartbeat artifact/001479.wav"
            string_val: "/content/drive/MyDrive/heartbeat artifact/001541.wav"
            string_val: "/content/drive/MyDrive/heartbeat artifact/001548.wav"
            string_val: "/content/drive/MyDrive/heartbeat artifact/001568.wav"
            string_val: "/content/drive/MyDrive/heartbeat artifact/0068.wav"
            string_val: "/content/drive/MyDrive/heartbeat artifact/001560.wav"
            string_val: "/content/drive/MyDrive/heartbeat artifact/001573.wav"
            string_val: "/content/drive/MyDrive/heartbeat artifact/0069.wav"
            string_val: "/content/drive/MyDrive/heartbeat artifact/001519.wav"
            string_val: "/content/drive/MyDrive/heartbeat artifact/0061.wav"
            string_val: "/content/drive/MyDrive/heartbeat artifact/001503.wav"
            string_val: "/content/drive/MyDrive/heartbeat artifact/001509.wav"
            string_val: "/content/drive/MyDrive/heartbeat artifact/001504.wav"
            string_val: "/content/drive/MyDrive/heartbeat artifact/001522.wav"
            string_val: "/content/drive/MyDrive/heartbeat artifact/001577.wav"
            string_val: "/content/drive/MyDrive/heartbeat artifact/001532.wav"
            string_val: "/content/drive/MyDrive/heartbeat artifact/001555.wav"
            string_val: "/content/drive/MyDrive/heartbeat artifact/001537.wav"
            string_val: "/content/drive/MyDrive/heartbeat artifact/0072.wav"
            string_val: "/content/drive/MyDrive/heartbeat artifact/001534.wav"
            string_val: "/content/drive/MyDrive/heartbeat artifact/001542.wav"
            string_val: "/content/drive/MyDrive/heartbeat artifact/001491.wav"
            string_val: "/content/drive/MyDrive/heartbeat artifact/001570.wav"
            string_val: "/content/drive/MyDrive/heartbeat artifact/0065.wav"
            string_val: "/content/drive/MyDrive/heartbeat artifact/001480.wav"
            string_val: "/content/drive/MyDrive/heartbeat artifact/001551.wav"
            string_val: "/content/drive/MyDrive/heartbeat artifact/001547.wav"
            string_val: "/content/drive/MyDrive/heartbeat artifact/0066.wav"
            string_val: "/content/drive/MyDrive/heartbeat artifact/001510.wav"
            string_val: "/content/drive/MyDrive/heartbeat artifact/001540.wav"
            string_val: "/content/drive/MyDrive/heartbeat artifact/001511.wav"
            string_val: "/content/drive/MyDrive/heartbeat artifact/001538.wav"
            string_val: "/content/drive/MyDrive/heartbeat artifact/001512.wav"
            string_val: "/content/drive/MyDrive/heartbeat artifact/001502.wav"
            string_val: "/content/drive/MyDrive/heartbeat artifact/001546.wav"
            string_val: "/content/drive/MyDrive/heartbeat artifact/001518.wav"
            string_val: "/content/drive/MyDrive/heartbeat artifact/001571.wav"
            string_val: "/content/drive/MyDrive/heartbeat artifact/001520.wav"
            string_val: "/content/drive/MyDrive/heartbeat artifact/001550.wav"
            string_val: "/content/drive/MyDrive/heartbeat artifact/001485.wav"
            string_val: "/content/drive/MyDrive/heartbeat artifact/001549.wav"
            string_val: "/content/drive/MyDrive/heartbeat artifact/001507.wav"
            string_val: "/content/drive/MyDrive/heartbeat artifact/001496.wav"
            string_val: "/content/drive/MyDrive/heartbeat artifact/001481.wav"
            string_val: "/content/drive/MyDrive/heartbeat artifact/001516.wav"
            string_val: "/content/drive/MyDrive/heartbeat artifact/001556.wav"
            string_val: "/content/drive/MyDrive/heartbeat artifact/001495.wav"
            string_val: "/content/drive/MyDrive/heartbeat artifact/001526.wav"
            string_val: "/content/drive/MyDrive/heartbeat artifact/001506.wav"
            string_val: "/content/drive/MyDrive/heartbeat artifact/001514.wav"
            string_val: "/content/drive/MyDrive/heartbeat artifact/0058.wav"
            string_val: "/content/drive/MyDrive/heartbeat artifact/001569.wav"
            string_val: "/content/drive/MyDrive/heartbeat artifact/001559.wav"
            string_val: "/content/drive/MyDrive/heartbeat artifact/001484.wav"
            string_val: "/content/drive/MyDrive/heartbeat artifact/001528.wav"
            string_val: "/content/drive/MyDrive/heartbeat artifact/001482.wav"
            string_val: "/content/drive/MyDrive/heartbeat artifact/001508.wav"
            string_val: "/content/drive/MyDrive/heartbeat artifact/001483.wav"
            string_val: "/content/drive/MyDrive/heartbeat artifact/001487.wav"
            string_val: "/content/drive/MyDrive/heartbeat artifact/001536.wav"
            string_val: "/content/drive/MyDrive/heartbeat artifact/0089.wav"
            string_val: "/content/drive/MyDrive/heartbeat artifact/0094.wav"
            string_val: "/content/drive/MyDrive/heartbeat artifact/0091.wav"
            string_val: "/content/drive/MyDrive/heartbeat artifact/0093.wav"
            string_val: "/content/drive/MyDrive/heartbeat artifact/0080.wav"
            string_val: "/content/drive/MyDrive/heartbeat artifact/0074.wav"
            string_val: "/content/drive/MyDrive/heartbeat artifact/0075.wav"
            string_val: "/content/drive/MyDrive/heartbeat artifact/0087.wav"
            string_val: "/content/drive/MyDrive/heartbeat artifact/0090.wav"
            string_val: "/content/drive/MyDrive/heartbeat artifact/0086.wav"
            string_val: "/content/drive/MyDrive/heartbeat artifact/0084.wav"
            string_val: "/content/drive/MyDrive/heartbeat artifact/0083.wav"
            string_val: "/content/drive/MyDrive/heartbeat artifact/0088.wav"
            string_val: "/content/drive/MyDrive/heartbeat artifact/0081.wav"
            string_val: "/content/drive/MyDrive/heartbeat artifact/0082.wav"
            string_val: "/content/drive/MyDrive/heartbeat artifact/0056.wav"
            string_val: "/content/drive/MyDrive/heartbeat artifact/0092.wav"
            string_val: "/content/drive/MyDrive/heartbeat artifact/0085.wav"
            string_val: "/content/drive/MyDrive/heartbeat artifact/0096.wav"
            string_val: "/content/drive/MyDrive/heartbeat artifact/0073.wav"
            string_val: "/content/drive/MyDrive/heartbeat artifact/0079.wav"
            string_val: "/content/drive/MyDrive/heartbeat artifact/0057.wav"
            string_val: "/content/drive/MyDrive/heartbeat artifact/0076.wav"
            string_val: "/content/drive/MyDrive/heartbeat artifact/0095.wav"
            string_val: "/content/drive/MyDrive/heartbeat artifact/0077.wav"
            string_val: "/content/drive/MyDrive/heartbeat artifact/0078.wav"
            string_val: "/content/drive/MyDrive/heartbeat artifact/00238.wav"
            string_val: "/content/drive/MyDrive/heartbeat artifact/00146.wav"
            string_val: "/content/drive/MyDrive/heartbeat artifact/00258.wav"
            string_val: "/content/drive/MyDrive/heartbeat artifact/00103.wav"
            string_val: "/content/drive/MyDrive/heartbeat artifact/00297.wav"
            string_val: "/content/drive/MyDrive/heartbeat artifact/00117.wav"
            string_val: "/content/drive/MyDrive/heartbeat artifact/00137.wav"
            string_val: "/content/drive/MyDrive/heartbeat artifact/00232.wav"
            string_val: "/content/drive/MyDrive/heartbeat artifact/00252.wav"
            string_val: "/content/drive/MyDrive/heartbeat artifact/00295.wav"
            string_val: "/content/drive/MyDrive/heartbeat artifact/00294.wav"
            string_val: "/content/drive/MyDrive/heartbeat artifact/00248.wav"
            string_val: "/content/drive/MyDrive/heartbeat artifact/00253.wav"
            string_val: "/content/drive/MyDrive/heartbeat artifact/00106.wav"
            string_val: "/content/drive/MyDrive/heartbeat artifact/00184.wav"
            string_val: "/content/drive/MyDrive/heartbeat artifact/00208.wav"
            string_val: "/content/drive/MyDrive/heartbeat artifact/00120.wav"
            string_val: "/content/drive/MyDrive/heartbeat artifact/00147.wav"
            string_val: "/content/drive/MyDrive/heartbeat artifact/00276.wav"
            string_val: "/content/drive/MyDrive/heartbeat artifact/00129.wav"
            string_val: "/content/drive/MyDrive/heartbeat artifact/00104.wav"
            string_val: "/content/drive/MyDrive/heartbeat artifact/00130.wav"
            string_val: "/content/drive/MyDrive/heartbeat artifact/00102.wav"
            string_val: "/content/drive/MyDrive/heartbeat artifact/00277.wav"
            string_val: "/content/drive/MyDrive/heartbeat artifact/00263.wav"
            string_val: "/content/drive/MyDrive/heartbeat artifact/00292.wav"
            string_val: "/content/drive/MyDrive/heartbeat artifact/00209.wav"
            string_val: "/content/drive/MyDrive/heartbeat artifact/00205.wav"
            string_val: "/content/drive/MyDrive/heartbeat artifact/00194.wav"
            string_val: "/content/drive/MyDrive/heartbeat artifact/00233.wav"
            string_val: "/content/drive/MyDrive/heartbeat artifact/00125.wav"
            string_val: "/content/drive/MyDrive/heartbeat artifact/00216.wav"
            string_val: "/content/drive/MyDrive/heartbeat artifact/00197.wav"
            string_val: "/content/drive/MyDrive/heartbeat artifact/00215.wav"
            string_val: "/content/drive/MyDrive/heartbeat artifact/00290.wav"
            string_val: "/content/drive/MyDrive/heartbeat artifact/00264.wav"
            string_val: "/content/drive/MyDrive/heartbeat artifact/00200.wav"
            string_val: "/content/drive/MyDrive/heartbeat artifact/00222.wav"
            string_val: "/content/drive/MyDrive/heartbeat artifact/00242.wav"
            string_val: "/content/drive/MyDrive/heartbeat artifact/00302.wav"
            string_val: "/content/drive/MyDrive/heartbeat artifact/00171.wav"
            string_val: "/content/drive/MyDrive/heartbeat artifact/00271.wav"
            string_val: "/content/drive/MyDrive/heartbeat artifact/00107.wav"
            string_val: "/content/drive/MyDrive/heartbeat artifact/00159.wav"
            string_val: "/content/drive/MyDrive/heartbeat artifact/00228.wav"
            string_val: "/content/drive/MyDrive/heartbeat artifact/00170.wav"
            string_val: "/content/drive/MyDrive/heartbeat artifact/00289.wav"
            string_val: "/content/drive/MyDrive/heartbeat artifact/00249.wav"
            string_val: "/content/drive/MyDrive/heartbeat artifact/00111.wav"
            string_val: "/content/drive/MyDrive/heartbeat artifact/00150.wav"
            string_val: "/content/drive/MyDrive/heartbeat artifact/00185.wav"
            string_val: "/content/drive/MyDrive/heartbeat artifact/00267.wav"
            string_val: "/content/drive/MyDrive/heartbeat artifact/00254.wav"
            string_val: "/content/drive/MyDrive/heartbeat artifact/00123.wav"
            string_val: "/content/drive/MyDrive/heartbeat artifact/00234.wav"
            string_val: "/content/drive/MyDrive/heartbeat artifact/00285.wav"
            string_val: "/content/drive/MyDrive/heartbeat artifact/00250.wav"
            string_val: "/content/drive/MyDrive/heartbeat artifact/00225.wav"
            string_val: "/content/drive/MyDrive/heartbeat artifact/00274.wav"
            string_val: "/content/drive/MyDrive/heartbeat artifact/00133.wav"
            string_val: "/content/drive/MyDrive/heartbeat artifact/00193.wav"
            string_val: "/content/drive/MyDrive/heartbeat artifact/00190.wav"
            string_val: "/content/drive/MyDrive/heartbeat artifact/00288.wav"
            string_val: "/content/drive/MyDrive/heartbeat artifact/00259.wav"
            string_val: "/content/drive/MyDrive/heartbeat artifact/00204.wav"
            string_val: "/content/drive/MyDrive/heartbeat artifact/00283.wav"
          }
        }
      }
    }
    node_def {
      name: "loader/TensorSliceDataset"
      op: "TensorSliceDataset"
      input: "loader/normalize_element/component_0:output:0"
      attr {
        key: "Toutput_types"
        value {
          list {
            type: DT_STRING
          }
        }
      }
      attr {
        key: "is_files"
        value {
          b: false
        }
      }
      attr {
        key: "metadata"
        value {
          s: ""
        }
      }
      attr {
        key: "output_shapes"
        value {
          list {
            shape {
            }
          }
        }
      }
      experimental_type {
        type_id: TFT_PRODUCT
        args {
          type_id: TFT_DATASET
          args {
            type_id: TFT_PRODUCT
            args {
              type_id: TFT_TENSOR
              args {
                type_id: TFT_STRING
              }
            }
          }
        }
      }
    }
    node_def {
      name: "loader/buffer_size"
      op: "Const"
      attr {
        key: "dtype"
        value {
          type: DT_INT64
        }
      }
      attr {
        key: "value"
        value {
          tensor {
            dtype: DT_INT64
            tensor_shape {
            }
            int64_val: 1577
          }
        }
      }
    }
    node_def {
      name: "loader/seed"
      op: "Const"
      attr {
        key: "dtype"
        value {
          type: DT_INT64
        }
      }
      attr {
        key: "value"
        value {
          tensor {
            dtype: DT_INT64
            tensor_shape {
            }
            int64_val: 0
          }
        }
      }
    }
    node_def {
      name: "loader/seed2"
      op: "Const"
      attr {
        key: "dtype"
        value {
          type: DT_INT64
        }
      }
      attr {
        key: "value"
        value {
          tensor {
            dtype: DT_INT64
            tensor_shape {
            }
            int64_val: 0
          }
        }
      }
    }
    node_def {
      name: "loader/ShuffleDataset"
      op: "ShuffleDataset"
      input: "loader/TensorSliceDataset:handle:0"
      input: "loader/buffer_size:output:0"
      input: "loader/seed:output:0"
      input: "loader/seed2:output:0"
      attr {
        key: "metadata"
        value {
          s: ""
        }
      }
      attr {
        key: "output_shapes"
        value {
          list {
            shape {
            }
          }
        }
      }
      attr {
        key: "output_types"
        value {
          list {
            type: DT_STRING
          }
        }
      }
      attr {
        key: "reshuffle_each_iteration"
        value {
          b: true
        }
      }
      experimental_type {
        type_id: TFT_PRODUCT
        args {
          type_id: TFT_DATASET
          args {
            type_id: TFT_PRODUCT
            args {
              type_id: TFT_TENSOR
              args {
                type_id: TFT_STRING
              }
            }
          }
        }
      }
    }
    node_def {
      name: "loader/count"
      op: "Const"
      attr {
        key: "dtype"
        value {
          type: DT_INT64
        }
      }
      attr {
        key: "value"
        value {
          tensor {
            dtype: DT_INT64
            tensor_shape {
            }
            int64_val: -1
          }
        }
      }
    }
    node_def {
      name: "loader/RepeatDataset"
      op: "RepeatDataset"
      input: "loader/ShuffleDataset:handle:0"
      input: "loader/count:output:0"
      attr {
        key: "metadata"
        value {
          s: ""
        }
      }
      attr {
        key: "output_shapes"
        value {
          list {
            shape {
            }
          }
        }
      }
      attr {
        key: "output_types"
        value {
          list {
            type: DT_STRING
          }
        }
      }
      experimental_type {
        type_id: TFT_PRODUCT
        args {
          type_id: TFT_DATASET
          args {
            type_id: TFT_PRODUCT
            args {
              type_id: TFT_TENSOR
              args {
                type_id: TFT_STRING
              }
            }
          }
        }
      }
    }
    node_def {
      name: "loader/num_parallel_calls"
      op: "Const"
      attr {
        key: "dtype"
        value {
          type: DT_INT64
        }
      }
      attr {
        key: "value"
        value {
          tensor {
            dtype: DT_INT64
            tensor_shape {
            }
            int64_val: 4
          }
        }
      }
    }
    node_def {
      name: "loader/ParallelMapDatasetV2"
      op: "ParallelMapDatasetV2"
      input: "loader/RepeatDataset:handle:0"
      input: "loader/num_parallel_calls:output:0"
      attr {
        key: "Targuments"
        value {
          list {
          }
        }
      }
      attr {
        key: "deterministic"
        value {
          s: "default"
        }
      }
      attr {
        key: "f"
        value {
          func {
            name: "__inference_Dataset_map__decode_audio_shaped_306"
            attr {
              key: "_tf_data_function"
              value {
                b: true
              }
            }
          }
        }
      }
      attr {
        key: "metadata"
        value {
          s: ""
        }
      }
      attr {
        key: "output_shapes"
        value {
          list {
            shape {
              dim {
                size: -1
              }
              dim {
                size: 1
              }
              dim {
                size: 1
              }
            }
          }
        }
      }
      attr {
        key: "output_types"
        value {
          list {
            type: DT_FLOAT
          }
        }
      }
      attr {
        key: "preserve_cardinality"
        value {
          b: true
        }
      }
      attr {
        key: "use_inter_op_parallelism"
        value {
          b: true
        }
      }
      experimental_type {
        type_id: TFT_PRODUCT
        args {
          type_id: TFT_DATASET
          args {
            type_id: TFT_PRODUCT
            args {
              type_id: TFT_TENSOR
              args {
                type_id: TFT_FLOAT
              }
            }
          }
        }
      }
    }
    node_def {
      name: "loader/FlatMapDataset"
      op: "FlatMapDataset"
      input: "loader/ParallelMapDatasetV2:handle:0"
      attr {
        key: "Targuments"
        value {
          list {
          }
        }
      }
      attr {
        key: "f"
        value {
          func {
            name: "__inference_Dataset_flat_map__slice_dataset_wrapper_396"
            attr {
              key: "_tf_data_function"
              value {
                b: true
              }
            }
          }
        }
      }
      attr {
        key: "metadata"
        value {
          s: ""
        }
      }
      attr {
        key: "output_shapes"
        value {
          list {
            shape {
              dim {
                size: 16384
              }
              dim {
                size: 1
              }
              dim {
                size: 1
              }
            }
          }
        }
      }
      attr {
        key: "output_types"
        value {
          list {
            type: DT_FLOAT
          }
        }
      }
      experimental_type {
        type_id: TFT_PRODUCT
        args {
          type_id: TFT_DATASET
          args {
            type_id: TFT_PRODUCT
            args {
              type_id: TFT_TENSOR
              args {
                type_id: TFT_FLOAT
              }
            }
          }
        }
      }
    }
    node_def {
      name: "loader/buffer_size_1"
      op: "Const"
      attr {
        key: "dtype"
        value {
          type: DT_INT64
        }
      }
      attr {
        key: "value"
        value {
          tensor {
            dtype: DT_INT64
            tensor_shape {
            }
            int64_val: 4096
          }
        }
      }
    }
    node_def {
      name: "loader/seed_1"
      op: "Const"
      attr {
        key: "dtype"
        value {
          type: DT_INT64
        }
      }
      attr {
        key: "value"
        value {
          tensor {
            dtype: DT_INT64
            tensor_shape {
            }
            int64_val: 0
          }
        }
      }
    }
    node_def {
      name: "loader/seed2_1"
      op: "Const"
      attr {
        key: "dtype"
        value {
          type: DT_INT64
        }
      }
      attr {
        key: "value"
        value {
          tensor {
            dtype: DT_INT64
            tensor_shape {
            }
            int64_val: 0
          }
        }
      }
    }
    node_def {
      name: "loader/ShuffleDataset_1"
      op: "ShuffleDataset"
      input: "loader/FlatMapDataset:handle:0"
      input: "loader/buffer_size_1:output:0"
      input: "loader/seed_1:output:0"
      input: "loader/seed2_1:output:0"
      attr {
        key: "metadata"
        value {
          s: ""
        }
      }
      attr {
        key: "output_shapes"
        value {
          list {
            shape {
              dim {
                size: 16384
              }
              dim {
                size: 1
              }
              dim {
                size: 1
              }
            }
          }
        }
      }
      attr {
        key: "output_types"
        value {
          list {
            type: DT_FLOAT
          }
        }
      }
      attr {
        key: "reshuffle_each_iteration"
        value {
          b: true
        }
      }
      experimental_type {
        type_id: TFT_PRODUCT
        args {
          type_id: TFT_DATASET
          args {
            type_id: TFT_PRODUCT
            args {
              type_id: TFT_TENSOR
              args {
                type_id: TFT_FLOAT
              }
            }
          }
        }
      }
    }
    node_def {
      name: "loader/batch_size"
      op: "Const"
      attr {
        key: "dtype"
        value {
          type: DT_INT64
        }
      }
      attr {
        key: "value"
        value {
          tensor {
            dtype: DT_INT64
            tensor_shape {
            }
            int64_val: 128
          }
        }
      }
    }
    node_def {
      name: "loader/drop_remainder"
      op: "Const"
      attr {
        key: "dtype"
        value {
          type: DT_BOOL
        }
      }
      attr {
        key: "value"
        value {
          tensor {
            dtype: DT_BOOL
            tensor_shape {
            }
            bool_val: true
          }
        }
      }
    }
    node_def {
      name: "loader/BatchDatasetV2"
      op: "BatchDatasetV2"
      input: "loader/ShuffleDataset_1:handle:0"
      input: "loader/batch_size:output:0"
      input: "loader/drop_remainder:output:0"
      attr {
        key: "metadata"
        value {
          s: ""
        }
      }
      attr {
        key: "output_shapes"
        value {
          list {
            shape {
              dim {
                size: 128
              }
              dim {
                size: 16384
              }
              dim {
                size: 1
              }
              dim {
                size: 1
              }
            }
          }
        }
      }
      attr {
        key: "output_types"
        value {
          list {
            type: DT_FLOAT
          }
        }
      }
      attr {
        key: "parallel_copy"
        value {
          b: false
        }
      }
      experimental_type {
        type_id: TFT_PRODUCT
        args {
          type_id: TFT_DATASET
          args {
            type_id: TFT_PRODUCT
            args {
              type_id: TFT_TENSOR
              args {
                type_id: TFT_FLOAT
              }
            }
          }
        }
      }
    }
    node_def {
      name: "loader/buffer_size_2"
      op: "Const"
      attr {
        key: "dtype"
        value {
          type: DT_INT64
        }
      }
      attr {
        key: "value"
        value {
          tensor {
            dtype: DT_INT64
            tensor_shape {
            }
            int64_val: 512
          }
        }
      }
    }
    node_def {
      name: "loader/PrefetchDataset"
      op: "PrefetchDataset"
      input: "loader/BatchDatasetV2:handle:0"
      input: "loader/buffer_size_2:output:0"
      attr {
        key: "_class"
        value {
          list {
            s: "loc:@loader/BatchDatasetV2"
          }
        }
      }
      attr {
        key: "buffer_size_min"
        value {
          i: 0
        }
      }
      attr {
        key: "legacy_autotune"
        value {
          b: true
        }
      }
      attr {
        key: "metadata"
        value {
          s: ""
        }
      }
      attr {
        key: "output_shapes"
        value {
          list {
            shape {
              dim {
                size: 128
              }
              dim {
                size: 16384
              }
              dim {
                size: 1
              }
              dim {
                size: 1
              }
            }
          }
        }
      }
      attr {
        key: "output_types"
        value {
          list {
            type: DT_FLOAT
          }
        }
      }
      attr {
        key: "slack_period"
        value {
          i: 0
        }
      }
      experimental_type {
        type_id: TFT_PRODUCT
        args {
          type_id: TFT_DATASET
          args {
            type_id: TFT_PRODUCT
            args {
              type_id: TFT_TENSOR
              args {
                type_id: TFT_FLOAT
              }
            }
          }
        }
      }
    }
    node_def {
      name: "loader/WrapDatasetVariant"
      op: "WrapDatasetVariant"
      input: "loader/PrefetchDataset:handle:0"
    }
    node_def {
      name: "loader/Const_1"
      op: "Const"
      attr {
        key: "dtype"
        value {
          type: DT_STRING
        }
      }
      attr {
        key: "value"
        value {
          tensor {
            dtype: DT_STRING
            tensor_shape {
            }
            string_val: "/cpu:0"
          }
        }
      }
    }
    node_def {
      name: "loader/Const_2"
      op: "Const"
      attr {
        key: "dtype"
        value {
          type: DT_STRING
        }
      }
      attr {
        key: "value"
        value {
          tensor {
            dtype: DT_STRING
            tensor_shape {
            }
            string_val: "/cpu:0"
          }
        }
      }
    }
    node_def {
      name: "loader/GeneratorDataset"
      op: "GeneratorDataset"
      input: "loader/Const:output:0"
      input: "loader/WrapDatasetVariant:output_handle:0"
      input: "loader/Const_1:output:0"
      input: "loader/Const_2:output:0"
      attr {
        key: "Tfinalize_func_args"
        value {
          list {
            type: DT_STRING
          }
        }
      }
      attr {
        key: "Tinit_func_args"
        value {
          list {
            type: DT_STRING
            type: DT_VARIANT
          }
        }
      }
      attr {
        key: "Tnext_func_args"
        value {
          list {
            type: DT_STRING
          }
        }
      }
      attr {
        key: "finalize_func"
        value {
          func {
            name: "__inference__remote_finalize_func_446"
          }
        }
      }
      attr {
        key: "init_func"
        value {
          func {
            name: "__inference__remote_init_func_421"
          }
        }
      }
      attr {
        key: "metadata"
        value {
          s: ""
        }
      }
      attr {
        key: "next_func"
        value {
          func {
            name: "__inference__remote_next_func_434"
            attr {
              key: "experimental_ints_on_device"
              value {
                b: true
              }
            }
          }
        }
      }
      attr {
        key: "output_shapes"
        value {
          list {
            shape {
              dim {
                size: 128
              }
              dim {
                size: 16384
              }
              dim {
                size: 1
              }
              dim {
                size: 1
              }
            }
          }
        }
      }
      attr {
        key: "output_types"
        value {
          list {
            type: DT_FLOAT
          }
        }
      }
      experimental_type {
        type_id: TFT_PRODUCT
        args {
          type_id: TFT_DATASET
          args {
            type_id: TFT_PRODUCT
            args {
              type_id: TFT_TENSOR
              args {
                type_id: TFT_FLOAT
              }
            }
          }
        }
      }
    }
    node_def {
      name: "loader/buffer_size_3"
      op: "Const"
      attr {
        key: "dtype"
        value {
          type: DT_INT64
        }
      }
      attr {
        key: "value"
        value {
          tensor {
            dtype: DT_INT64
            tensor_shape {
            }
            int64_val: -1
          }
        }
      }
    }
    node_def {
      name: "loader/PrefetchDataset_1"
      op: "PrefetchDataset"
      input: "loader/GeneratorDataset:handle:0"
      input: "loader/buffer_size_3:output:0"
      attr {
        key: "_class"
        value {
          list {
            s: "loc:@loader/GeneratorDataset"
          }
        }
      }
      attr {
        key: "buffer_size_min"
        value {
          i: 0
        }
      }
      attr {
        key: "legacy_autotune"
        value {
          b: true
        }
      }
      attr {
        key: "metadata"
        value {
          s: ""
        }
      }
      attr {
        key: "output_shapes"
        value {
          list {
            shape {
              dim {
                size: 128
              }
              dim {
                size: 16384
              }
              dim {
                size: 1
              }
              dim {
                size: 1
              }
            }
          }
        }
      }
      attr {
        key: "output_types"
        value {
          list {
            type: DT_FLOAT
          }
        }
      }
      attr {
        key: "slack_period"
        value {
          i: 0
        }
      }
      experimental_type {
        type_id: TFT_PRODUCT
        args {
          type_id: TFT_DATASET
          args {
            type_id: TFT_PRODUCT
            args {
              type_id: TFT_TENSOR
              args {
                type_id: TFT_FLOAT
              }
            }
          }
        }
      }
    }
    ret {
      key: "loader_prefetchdataset_1"
      value: "loader/PrefetchDataset_1:handle:0"
    }
    attr {
      key: "_disable_call_shape_inference"
      value {
        b: true
      }
    }
  }
}
versions {
  producer: 1087
  min_consumer: 12
}
